scripts/isrr_2024/models/vel_dyn_lyap_4_8_8_1_relu_guided.pt (torch, 2691 bytes, 3 tensors)

layers.0.weight f4 [8, 4]
0	0x3f0b700f	0.5446786
1	0x3f1c78c9	0.61121804
2	0xbdea5124	-0.114412576
3	0x3e01a3bc	0.12660116
4	0xbe947a67	-0.28999636
5	0xbf13e7a4	-0.5777533
6	0xbec65b78	-0.3874166
7	0x3e6f6eaa	0.23382059
8	0xbeb4ae76	-0.35289353
9	0x3efb01eb	0.490249
10	0xbdd23d43	-0.10265591
11	0xbed2bc21	-0.41159156
12	0xbee83a37	-0.45356914
13	0xbef9b6f0	-0.48772383
14	0x3e458ac3	0.19291215
15	0x3ed44be0	0.41464138
16	0x3e95a4b3	0.29227218
17	0xbf59e957	-0.85121673
18	0xbe5599f0	-0.20859504
19	0xbe4fb2ba	-0.20283023
20	0x3eb2b7bc	0.34905803
21	0xbf073163	-0.52809733
22	0x3e8d42c4	0.2759
23	0xbee9d392	-0.45669228
24	0xbde770a0	-0.113007784
25	0x3c901143	0.017586356
26	0xbea5bd5d	-0.32371035
27	0x3cfec5b2	0.031100128
28	0xbf066527	-0.52498096
29	0xbee3abd8	-0.44467044
30	0x3ec83dd9	0.39109686
31	0xbd20626b	-0.03915636

layers.2.weight f4 [8, 8]
0	0x3ce46375	0.027879456
1	0x3e318f87	0.17339908
2	0x3d9bfe88	0.07616907
3	0xbd6fe891	-0.058571402
4	0x3d90ad21	0.07064272
5	0x3db8f8ca	0.09031828
6	0xbd52a481	-0.051426414
7	0x3d266c37	0.040630545
8	0x3da17a26	0.07884626
9	0x3d5edd63	0.05441035
10	0x3cc1a42d	0.023637855
11	0xbda9feb3	-0.08300533
12	0x3e7d506b	0.24737708
13	0xbe8cae75	-0.2747685
14	0xbec6fb78	-0.3886373
15	0xbe059ca8	-0.13048041
16	0x3e53d39b	0.2068619
17	0x3e300e8d	0.1719305
18	0x3e99cca3	0.30038938
19	0x3e06d653	0.13167696
20	0x3e965633	0.2936264
21	0x3cb93143	0.022606498
22	0xbda92ae8	-0.08260137
23	0x3e1fb0eb	0.15594833
24	0xbcd2f35d	-0.02575081
25	0xbe0b5596	-0.13606867
26	0x3dc45337	0.095861845
27	0x3e1b06da	0.15139332
28	0xbc8cd4c8	-0.017191306
29	0xbe2ec991	-0.17069079
30	0x3e46933b	0.19392101
31	0x3c06ba5f	0.008223145
32	0x3e214505	0.15748985
33	0x3c9beb0c	0.019032978
34	0x3e67ed0b	0.22649018
35	0x3e4c7f96	0.19970545
36	0xbe89a840	-0.26886177
37	0xbe52cf46	-0.20586881
38	0x3e4e31c3	0.2013617
39	0xbbb0219b	-0.0053751
40	0xbe8ff801	-0.281189
41	0x3cc22c41	0.023702743
42	0x3d92b71f	0.07163834
43	0x3ccc3993	0.024929797
44	0xbe9012db	-0.28139386
45	0x3cdc4605	0.026888857
46	0x3eb5346d	0.3539156
47	0x3cf9b21b	0.030480435
48	0x3ed57ff8	0.41699195
49	0x3d399d1a	0.04531584
50	0xbda4c0ee	-0.08044611
51	0x3e1a226e	0.15052196
52	0xbe46a9bf	-0.1940069
53	0x3e4cf67e	0.20015904
54	0xbe255d99	-0.16148986
55	0xbc96ccb9	-0.018408166
56	0x3e0a6b2e	0.13517448
57	0x3daf0fb0	0.08547914
58	0x3e7453e6	0.2386013
59	0x3e0a1951	0.1348622
60	0xbe88ff0f	-0.26757094
61	0xbe47429e	-0.19459006
62	0x3de27251	0.110569604
63	0x3c17b6ae	0.009259863

layers.4.weight f4 [1, 8]
0	0xbda324a6	-0.079659745
1	0xbcf25226	-0.029580187
2	0x3e402d3d	0.18767257
3	0xbd31c952	-0.043404885
4	0x3e8e8459	0.27835348
5	0xbcb4aa58	-0.022053882
6	0x3ddf3e9d	0.109006144
7	0xbe6cc936	-0.23123631
