scripts/isrr_2024/models/vel_dyn_lyap_2_8_8_1_relu_guided.pt (torch, 2627 bytes, 3 tensors)

layers.0.weight f4 [8, 2]
0	0x3f0af51d	0.54280263
1	0x3f00f343	0.5037119
2	0xbe39d4ef	-0.18147634
3	0xbf040d33	-0.5158264
4	0xbefc3164	-0.49256432
5	0x3ee3f110	0.44519854
6	0xbf0d9d50	-0.55318165
7	0xbeefecb5	-0.4686028
8	0x3ed88521	0.4228907
9	0xbf4b0b74	-0.7931435
10	0x3ee213d9	0.44155768
11	0xbf0269b2	-0.5094253
12	0xbd81d667	-0.06339722
13	0xbcbdf302	-0.023187164
14	0xbf0e9bcb	-0.5570647
15	0xbeb506d9	-0.35356787

layers.2.weight f4 [8, 8]
0	0x3cb0cc39	0.021581756
1	0x3d9c4a20	0.07631326
2	0x3df3233c	0.11871955
3	0xbd3cd960	-0.046105742
4	0x3d9847c3	0.074355625
5	0x3e0f85fa	0.14015952
6	0x3d9e188a	0.07719524
7	0xbe1597e5	-0.14608724
8	0x3dacad40	0.08431482
9	0xbe5882ac	-0.21143597
10	0x3d462eeb	0.04838459
11	0xbbc54bf3	-0.0060210167
12	0x3df30ae1	0.11867309
13	0xbe9f5e44	-0.31126606
14	0xbedb0cff	-0.42783353
15	0xbdc4675c	-0.09590027
16	0x3e5aa91a	0.2135357
17	0x3e8e11fc	0.27748096
18	0x3ea083de	0.31350607
19	0x3d165b45	0.036708135
20	0x3e8bc791	0.27300695
21	0xbcdda8eb	-0.027058085
22	0xbe63424b	-0.22193258
23	0x3e12e748	0.1434604
24	0xbd37c8c7	-0.04486921
25	0xbe651d91	-0.2237456
26	0x3dca25c9	0.09870488
27	0x3e5eb7ad	0.21749754
28	0x3d2dee5a	0.042463638
29	0xbdba94fd	-0.091104485
30	0x3e69c7f9	0.2283019
31	0x3d8b19ab	0.06792005
32	0x3e2676d4	0.16256267
33	0x3d9a3bf1	0.07530964
34	0x3e7f9afe	0.24961469
35	0x3e223eef	0.1584432
36	0xbe83d954	-0.25751746
37	0xbe7c1e28	-0.24620879
38	0x3e736981	0.23770715
39	0x3d06260c	0.032751128
40	0xbe9d1496	-0.30679768
41	0xbd0985a1	-0.033574704
42	0x3d760409	0.060062442
43	0x3db06981	0.08613873
44	0xbe944781	-0.28960803
45	0x3db30770	0.08741653
46	0x3eb9838d	0.36233178
47	0x3cebd72d	0.028789127
48	0x3ede3651	0.43400815
49	0x3e844911	0.25836995
50	0xbdb46f00	-0.08810234
51	0x3cf271d6	0.029595297
52	0xbe29f784	-0.16598326
53	0x3e425a31	0.18979718
54	0x3cb1d44c	0.021707676
55	0xbd891887	-0.06694131
56	0x3e153e4d	0.14574547
57	0x3d7ddf14	0.061980322
58	0x3e629d61	0.22130348
59	0x3e4f7360	0.20258856
60	0xbe86f271	-0.26356843
61	0xbe362589	-0.17787756
62	0x3dba244c	0.09088954
63	0xbc5db584	-0.013532046

layers.4.weight f4 [1, 8]
0	0xbe0b3c54	-0.13597232
1	0xbe121c7e	-0.14268681
2	0x3e3ec7a1	0.1863084
3	0xbdbeab89	-0.093100615
4	0x3ea55e49	0.32298496
5	0xbdc28039	-0.09497113
6	0x3de4ccad	0.11171851
7	0xbe6e79a8	-0.23288596
