scripts/isrr_2024/models/vel_dyn_ctrl_2_8_8_1_relu_guided.pt (torch, 4481 bytes, 3 tensors)

layers.0.weight f4 [8, 2]
000000 04 94 11 3f 5d 02 57 3e 2e 00 c1 3e d6 d5 ac 3f
       0.5686648 0.20996995 0.3769545 1.3502758
000010 48 13 79 3d f8 29 84 bf ca 66 27 bf 47 5c 81 3e
       0.060809404 -1.0325308 -0.6539122 0.25265715
000020 77 41 10 bd 14 4e 7c bf d2 66 e4 be 0a c2 3d be
       -0.035218682 -0.9855664 -0.44609696 -0.18531051
000030 8f 80 35 3d c8 ac 82 3f 3c 09 07 3f b5 0d 0b be
       0.044312056 1.0208979 0.52748466 -0.13579448

layers.2.weight f4 [8, 8]
000000 d5 22 07 bf 09 e6 16 be d4 9f 61 3f 68 78 e5 3e
       -0.52787524 -0.14736189 0.88134503 0.44818425
000010 1f 52 fb 3e 23 1f 50 3f 3a 5d f9 bb b1 ea 8b be
       0.4908609 0.8129751 -0.0076099904 -0.27327493
000020 c9 4d 5a 3f 9a 63 b0 3f 7c c0 22 bd 5c 99 d7 3c
       0.8527494 1.3780396 -0.03973435 0.026318245
000030 06 63 f3 be 00 8e b3 3e 6d 9d 4a 3f 3c 9c 95 3e
       -0.47536486 0.35069275 0.7914646 0.2922076
000040 d1 02 0a bf 75 a0 c9 be 44 ed 35 3f 82 39 fb 3d
       -0.5391055 -0.39380231 0.71065164 0.12266828
000050 a0 9e 19 3f 25 5b 09 3f 70 0f ca be a3 bb 40 be
       0.6000767 0.536547 -0.39464903 -0.18821578
000060 34 95 0c bf f0 44 18 be bd 9b 4e 3f 06 1d d0 3e
       -0.54915166 -0.14870048 0.8070639 0.40647143
000070 32 dd 01 3f 08 0a f1 3e c3 da 8a 3d 96 96 4c be
       0.5072814 0.47077966 0.06780007 -0.19979319
000080 99 8a 5c bd 82 d2 87 be b7 61 0d be 97 8c 9b be
       -0.053843115 -0.26527792 -0.13806807 -0.303807
000090 b8 91 b3 3d 51 29 a0 3c 6a 4d 00 be e1 00 78 bd
       0.08768028 0.019550951 -0.12529531 -0.060547713
0000a0 88 7d 08 3f a4 c9 bf 3f 33 b9 78 3e 93 52 09 c0
       0.53316545 1.4983411 0.24289398 -2.145665
0000b0 ff c3 9e 3e a9 57 b0 bf fd a6 e1 3f 9d af 96 3e
       0.31008908 -1.3776752 1.7629086 0.29430857
0000c0 56 d3 73 bf 98 0d 96 be 00 94 cf 3e 11 43 39 bf
       -0.9524435 -0.29307246 0.40542603 -0.7236796
0000d0 e1 da 41 3f 07 75 41 3f 37 ab 08 bf 58 ed 21 bf
       0.7572461 0.75569195 -0.53386253 -0.6325278
0000e0 de 92 79 3f 45 4e b2 3e ac a9 2d be e0 a1 ce bd
       0.97489727 0.3482534 -0.16959256 -0.10089469
0000f0 ca 21 71 bf 0e de bb 3d bb ba 23 c0 16 85 3a 3f
       -0.94192183 0.09173213 -2.5582721 0.72859323

layers.4.weight f4 [1, 8]
000000 7d 63 06 bf 63 56 64 3f 71 4a 32 bf 4d 0d 1c bf
       -0.5249556 0.89194316 -0.6964484 -0.60957795
000010 e0 fd 10 3d bc 3d 51 3f f7 32 94 bf 29 81 68 bf
       0.035398364 0.81734824 -1.1578053 -0.9082208
