scripts/isrr_2024/models/vel_dyn_lyap_6_8_8_1_relu_guided.pt (torch, 2755 bytes, 3 tensors)

layers.0.weight f4 [8, 6]
0	0x3f49e9db	0.7887246
1	0x3fb94c38	1.4476385
2	0x3b38fd24	0.0028227055
3	0x3d5970e6	0.053086184
4	0x3ce6967a	0.028147925
5	0x3d181d04	0.037137046
6	0x3f36f5e6	0.7146896
7	0x3eed0a82	0.4629708
8	0x3e1f2e86	0.15545091
9	0xbf30e9a5	-0.69106513
10	0xbe4efdd5	-0.20214017
11	0x3e2f82ba	0.17139712
12	0xbf18dac2	-0.597088
13	0x3f0820d9	0.5317512
14	0xbe4b090f	-0.19827674
15	0xbb587c1b	-0.0033032957
16	0x3e0e79dc	0.13913673
17	0x3da3bdc4	0.07995179
18	0xbd9260d5	-0.071473755
19	0xbee3b8d9	-0.44476965
20	0x3f2b7590	0.6697626
21	0x3f7405eb	0.9532153
22	0xbd9f50ec	-0.077791065
23	0xbc25d2e6	-0.010121083
24	0x3f2c7d43	0.67378634
25	0xbf1a3ec6	-0.60252035
26	0xbf05e1e7	-0.52297825
27	0x3d980781	0.07423306
28	0x3dfee412	0.12445845
29	0x3e0de938	0.13858497
30	0x3e531830	0.20614696
31	0x3ee07709	0.43840817
32	0xbd184c3c	-0.037182078
33	0xbf4f18af	-0.8089704
34	0xbb001f24	-0.0019549811
35	0xbd762389	-0.060092483
36	0xbdeba413	-0.11505904
37	0xbde6b1c2	-0.11264373
38	0x3e8e59a0	0.27802753
39	0x3e5b460f	0.21413444
40	0xbecbbc6d	-0.39792195
41	0xbf11a5b9	-0.568935
42	0xbf4311a6	-0.76198804
43	0xbfc05435	-1.5025698
44	0x3cfd683b	0.03093349
45	0x3ddd6c1a	0.10811634
46	0x3de22e42	0.11043979
47	0x3d71aeee	0.059004717

layers.2.weight f4 [8, 8]
0	0xbf02313c	-0.50856376
1	0x3ea30571	0.3184009
2	0xbf0fc0f8	-0.5615382
3	0x3e09a4db	0.13441794
4	0x3ef28d81	0.47373584
5	0xbd5dcd4f	-0.054150876
6	0x3e63d7dc	0.22250313
7	0x3db74e54	0.08950487
8	0xbf55dbeb	-0.83538693
9	0xbe713582	-0.23555568
10	0x3e09feb2	0.13476065
11	0x3e3220ae	0.17395279
12	0x3cb6ec7e	0.022329565
13	0xbea119a6	-0.3146488
14	0x3e1f586b	0.15561073
15	0x3f05e486	0.52301824
16	0x3f70c6f2	0.94053566
17	0x3e1b0d9c	0.1514191
18	0x3ed78b46	0.42098445
19	0x3ea303bf	0.31838796
20	0x3e720f72	0.23638704
21	0x3e8dcb8a	0.2769435
22	0x3e3730b4	0.17889673
23	0x3f4385fd	0.76376325
24	0x3e02c29d	0.12769552
25	0x3e3ad06f	0.18243574
26	0x3ee687df	0.45025536
27	0x3db85ace	0.090016946
28	0x3edb66fd	0.4285201
29	0x3e189bf1	0.14903237
30	0x3d8eb454	0.069679886
31	0x3e982c72	0.2972141
32	0x3e819a15	0.25312868
33	0x3dbb55b9	0.0914721
34	0x3e8e90c1	0.27844813
35	0x3e03bb23	0.12864356
36	0x3e265f9e	0.16247413
37	0x3e69317f	0.22772788
38	0xbdd6f68f	-0.10496246
39	0x3efe9cb2	0.49728924
40	0x3ee44969	0.44587258
41	0xbeaa9a01	-0.3332062
42	0x3dcd8568	0.10035211
43	0xbeb40bc5	-0.3516523
44	0xbdf20d8f	-0.11818992
45	0x3e22fed9	0.15917529
46	0xbe0174df	-0.12642239
47	0xbee8c167	-0.45460054
48	0x3f3b8206	0.73245275
49	0x3e378e2b	0.17925327
50	0x3ea40274	0.32033122
51	0x3ec165c3	0.3777295
52	0x3e2ba7cf	0.16763233
53	0x3ea2b3fb	0.3177794
54	0x3e05322a	0.13007417
55	0x3f270b20	0.6525135
56	0x3f00e5b1	0.5035048
57	0x3e5d7c5b	0.21629469
58	0x3e1e3aa7	0.15452062
59	0x3e6d42e6	0.23170051
60	0x3e1522a2	0.14563993
61	0x3d4d5f87	0.05013993
62	0x3e004d1f	0.1252942
63	0xbf679736	-0.90465105

layers.4.weight f4 [1, 8]
0	0x3df8d379	0.1214971
1	0x3daa885c	0.0832679
2	0x3ec0615b	0.37574276
3	0x3c8e8ab8	0.01740013
4	0x3d1191f7	0.035539594
5	0x3e3c75c3	0.18404298
6	0x3d9034a1	0.07041288
7	0x3e5463a8	0.20741141
