platoon_gym/ctrl/models/vel_dyn_ctrl_pf_2_32_32_1_leaky_relu_guided.pt (torch, 8848 bytes, 3 tensors)

layers.0.weight f4 [32, 2]
-0.560242 -0.81142133 -0.63633287 0.6149481 0.6360801 -0.12778124 0.15961492 0.041983753
-0.3556169 -0.6784203 0.65081954 0.5808831 0.21598984 0.82420945 -0.24428047 -0.5818302
0.51172596 0.73178095 -0.22820309 0.10281781 -0.19631667 -0.6145137 0.16743346 0.19911551
-0.58087826 0.568847 -0.34229693 -0.22128314 0.31150588 0.022488337 -0.099491075 0.687108
0.36711287 0.30208418 -0.3156923 -0.89414907 0.056315973 0.410325 0.02222447 -0.26913792
-0.18842399 0.44686875 -0.36863437 -0.86346704 0.41885772 -0.4824203 -0.37529337 0.28426573
0.20630608 1.0615838 -0.20100658 0.50715846 -0.275073 0.526993 0.45928103 0.9442952
-0.43869725 -0.8256568 0.689056 -0.6478618 0.12085621 0.81983405 0.17979832 -0.4220929
00000000: 056c 0fbf 4fb9 4fbf b6e6 22bf 3d6d 1d3f
00000010: 25d6 223f 16d9 02be 1872 233e 28f7 2b3d
00000020: 6b13 b6be f4ac 2dbf 1c9c 263f c1b4 143f
00000030: 712c 5d3e 64ff 523f a924 7abe d3f2 14bf
00000040: 7900 033f ff55 3b3f 12ae 69be 2592 d23d
00000050: 3d07 49be c550 1dbf ad73 2b3e f0e4 4b3e
00000060: 70b4 14bf f59f 113f 8b41 afbe 0c98 62be
00000070: b37d 9f3e 7639 b83c fac1 cbbd 4fe6 2f3f
00000080: 38f6 bb3e c7aa 9a3e 6ca2 a1be f4e6 64bf
00000090: 94ab 663d 1e16 d23e 1710 b63c 72cc 89be
000000a0: 38f2 40be fbcb e43e a5bd bcbe 2d0c 5dbf
000000b0: 8574 d63e cbff f6be 7426 c0be 478b 913e
000000c0: e741 533e fae1 873f abd4 4dbe 23d5 013f
000000d0: 5ed6 8cbe 03e9 063f e226 eb3e 55bd 713f
000000e0: ed9c e0be 3e5e 53bf f965 303f 45da 25bf
000000f0: 7683 f73d a5e0 513f 0d1d 383e 901c d8be

layers.2.weight f4 [32, 32]
-0.1057896 0.051560927 0.1468652 0.13196126 -0.10510423 -0.05453082 0.055941615 0.005964619
0.114836186 0.020990206 -0.09052536 0.06444634 -0.04358525 0.11864669 0.093839884 0.1284755
-0.13666408 -0.00143113 0.0873743 -0.16192658 -0.13254993 -0.01899636 0.15626115 0.05181725
-0.14510503 0.14243032 0.07206612 -0.0840748 0.1407046 0.16123542 0.02725711 0.09659006
-0.11260285 0.076136075 0.08977556 0.11975271 0.044290148 -0.08307239 0.07849448 -0.094062515
-0.032144167 0.012633151 0.1921284 0.041158 0.03723514 0.008496613 -0.12605985 0.12151543
0.15794984 0.11151298 -0.16205712 0.10165368 0.005054279 -0.114584625 0.09282339 0.1668103
-0.14775333 -0.066103764 -0.0098543735 -0.07231629 0.024772484 0.13358526 0.093769185 0.09813315
0.4406746 -0.08095193 0.18036461 0.17517023 0.35698664 0.15092324 0.055538755 0.30061373
-0.076956525 -0.057460837 0.11105512 0.18000373 -0.10312631 0.20237905 -0.049322855 0.0026834614
0.038404122 0.4363671 -0.1035174 0.10695409 0.10287481 0.3290705 0.1109159 -0.005628849
-0.20229077 -0.07951701 -0.028549194 0.13823229 0.33562326 0.2697567 -0.063090526 0.20519128
-0.11342911 -0.114718035 -0.022378052 -0.009439755 -0.078775875 0.14796238 -0.0010280377 0.14879195
0.04584248 0.016057694 -0.16046609 0.035186842 -0.035095118 -0.06925938 -0.062388934 0.02301465
-0.11424639 -0.13474885 0.08512889 0.12499388 -0.043109655 -0.097763486 0.05148271 -0.16475578
0.08080322 -0.094488025 -0.07284003 -0.16276097 0.13439496 0.17588314 -0.21725065 -0.15750216
-0.02111476 -0.2604162 0.1455064 -0.17805514 0.20370452 0.09343572 -0.16096371 0.0759932
-0.02636417 -0.11185167 0.18643904 0.124584496 -0.24792783 0.14510721 0.11285886 -0.053160112
0.14557268 0.29782462 -0.0090498105 0.19268069 -0.17111567 0.087418675 0.16660318 0.063493915
-0.18887721 -0.25483653 -0.001111195 0.115023136 0.19444664 0.14878356 -0.17292474 0.050702777
0.040506102 0.08810638 0.037523974 -0.16266787 0.14715213 0.16021821 -0.00021811097 -0.10299165
0.010997663 0.17551199 -0.10603964 0.12938984 0.17947422 0.108025394 -0.025891343 0.025327474
0.17307594 -0.07124625 -0.041236915 -0.08608071 0.006263009 0.03650166 0.16853376 0.10217027
0.24358217 0.13683741 0.14233665 0.19693506 -0.011926371 0.11722088 0.12507431 -0.14782771
0.17252874 0.031619295 0.115817614 -0.17186403 0.031765625 0.037515804 -0.06475877 0.20873758
-0.1740172 0.093797006 0.05168699 0.09035856 0.017046321 0.047671735 -0.0112450095 -0.06916399
-0.012611224 0.19888774 -0.11554058 -0.11795713 0.15209866 0.19799621 0.001122067 -0.044532966
0.0022465189 0.04018458 0.122115165 -0.12280873 0.19279133 -0.030111944 0.022550395 0.18741496
0.14374787 0.013091009 -0.106779106 0.1465796 -0.0056724143 0.032853257 0.030686006 -0.029771682
-0.066058576 -0.13134769 0.16935174 -0.02774393 -0.04848938 0.111598425 -0.12147986 -0.03518042
0.016458178 0.03078444 -0.14617756 0.117469065 0.017633038 0.15709992 -0.06364423 0.06536765
-0.03316701 0.13051905 0.06242773 -0.13964497 -0.029094374 0.11737935 0.038445685 -0.10155363
00000000: 38a8 d8bd 8d31 533d d563 163e da20 073e
00000010: e340 d7bd b65b 5fbd 0923 653d da72 c33b
00000020: 3c2f eb3d a7f3 ab3c 5c65 b9bd 71fc 833d
00000030: 7286 32bd 09fd f23d 202f c03d 158f 033e
00000040: abf1 0bbe c194 bbba 4cf1 b23d 15d0 25be
00000050: 2bbb 07be 419e 9bbc ec02 203e 533e 543d
00000060: 6a96 14be 41d9 113e 6797 933d 692f acbd
00000070: de14 103e e61a 253e 4e4a df3c 02d1 c53d
00000080: 539c e6bd 3bed 9b3d 40dc b73d e940 f53d
00000090: 9669 353d db21 aabd b7c1 a03d d9a3 c0bd
000000a0: 9aa9 03bd 47fb 4e3c 4fbd 443e 4a95 283d
000000b0: e083 183d 6135 0b3c d515 01be 15dd f83d
000000c0: 9abd 213e eb60 e43d 4df2 25be ce2f d03d
000000d0: 5e9e a53b 58ab eabd 311a be3d 52d0 2a3e
000000e0: a64c 17be 6961 87bd 3d74 21bc 901a 94bd
000000f0: aaef ca3c 93ca 083e 0f0a c03d 08fa c83d
00000100: 1aa0 e13e 20ca a5bd 80b1 383e d35f 333e
00000110: f4c6 b63e 9f8b 1a3e 9b7c 633d 0bea 993e
00000120: 629b 9dbd 0e5c 6bbd de70 e33d e652 383e
00000130: e333 d3bd 743c 4f3e c306 4abd 03dd 2f3b
00000140: a44d 1d3d 826b df3e ee00 d4bd bf0a db3d
00000150: 07b0 d23d ee7b a83e e027 e33d 3572 b8bb
00000160: 5025 4fbe d0d9 a2bd 00e0 e9bc c48c 0d3e
00000170: d0d6 ab3e 8d1d 8a3e 9b35 81bd aa1d 523e
00000180: 854d e8bd 4af1 eabd 2d52 b7bc 34a9 1abc
00000190: 3f55 a1bd 7383 173e 39bf 86ba eb5c 183e
000001a0: 53c5 3b3d 6d8b 833c 3951 24be 1420 103d
000001b0: e6bf 0fbd ddd7 8dbd 8a8b 7fbd 3889 bc3c
000001c0: 03fa e9bd 9afb 09be 0e58 ae3d cbfc ff3d
000001d0: c093 30bd 3938 c8bd 89df 523d bdb5 28be
000001e0: 297c a53d f082 c1bd 272d 95bd d0aa 26be
000001f0: d59e 093e b61a 343e f476 5ebe 3f48 21be
00000200: dcf8 acbc 4655 85be a1ff 143e 1654 36be
00000210: eb97 503e 3a5b bf3d acd3 24be 53a2 9b3d
00000220: acf9 d7bc 7d12 e5bd e0e9 3e3e 2826 ff3d
00000230: cbe0 7dbe fc96 143e 8c22 e73d 6bbe 59bd
00000240: 0111 153e 787c 983e a845 14bc 164e 453e
00000250: f238 2fbe 9008 b33d 069a 2a3e 1909 823d
00000260: 0769 41be ef79 82be 84a5 91ba 4091 eb3d
00000270: 051d 473e b85a 183e 2f13 31be b7ad 4f3d
00000280: bae9 253d 1e71 b43d bdb2 193d 6892 26be
00000290: 0caf 163e 3e10 243e b8b4 64b9 49ed d2bd
000002a0: 8b2f 343c 6ab9 333e 502b d9bd c57e 043e
000002b0: 17c8 373e 6b3c dd3d 151a d4bc 907b cf3c
000002c0: d23a 313e 8ee9 91bd 0ae8 28bd 154b b0bd
000002d0: ed39 cd3b c482 153d 1d94 2c3e a63e d13d
000002e0: 9b6d 793e 1b1f 0c3e b3c0 113e 58a9 493e
000002f0: d366 43bc 8011 f03d 7b13 003e 2660 17be
00000300: 60ab 303e 3c83 013d c931 ed3d 20fd 2fbe
00000310: ac1c 023d 2caa 193d 3fa0 84bd 4ebf 553e
00000320: 9131 32be a518 c03d bdb5 533d e90d b93d
00000330: baa4 8b3c 7043 433d fd3c 38bc daa5 8dbd
00000340: 4f9f 4ebc 3aa9 4b3e 8aa0 ecbd 8293 f1bd
00000350: c0bf 1b3e 85bf 4a3e 5212 933a 3368 36bd
00000360: 553a 133b 9698 243d 8417 fa3d 2583 fbbd
00000370: 176b 453e 53ad f6bc 9bbb b83c b5e9 3f3e
00000380: a432 133e ac7b 563c 01af dabd f618 163e
00000390: a9df b9bb 2391 063d 3861 fb3c bee3 f3bc
000003a0: b849 87bd 0280 06be 8b6a 2d3e 3d47 e3bc
000003b0: cd9c 46bd b78d e43d 6fca f8bd 5819 10bd
000003c0: 4dd3 863c a62f fc3c 92af 15be 9f93 f03d
000003d0: 2973 903c cdde 203e e857 82bd 79df 853d
000003e0: 21da 07bd c9a6 053e 38b4 7f3d 17ff 0ebe
000003f0: 5357 eebc 9664 f03d 3979 1d3d 59fb cfbd

layers.4.weight f4 [1, 32]
-0.021267707 -0.056260426 -0.92842835 -0.10831845 -0.5955511 0.38742384 -0.41251445 -0.16540839
-0.4077387 -0.030723821 0.178191 -0.14531799 -0.54604274 0.40415046 0.9281766 0.7431655
0.23417807 0.023167951 0.09768103 -0.48307905 0.030614123 -0.23124431 0.5482602 -0.37212443
0.35629943 0.17064318 0.5925129 0.8453248 0.73752284 -0.01732177 0.15429957 -0.47241914
00000000: 9d39 aebc 5571 66bd 7bad 6dbf 10d6 ddbd
00000010: 0976 18bf 6b5c c63e 1835 d3be d160 29be
00000020: 20c3 d0be 86b0 fbbc b477 363e 3dce 14be
00000030: 75c9 0bbf cfec ce3e fb9c 6d3f 1840 3e3f
00000040: 60cc 6f3e b7ca bd3c fe0c c83d 2356 f7be
00000050: 78ca fa3c 4fcb 6cbe c85a 0c3f 1887 bebe
00000060: e16c b63e 16bd 2e3e edae 173f 3567 583f
00000070: 4cce 3c3f 62e6 8dbc b500 1e3e ece0 f1be
