platoon_gym/ctrl/models/vel_dyn_lyap_pf_200_32_32_1_leaky_relu_guided_100_vehs.pt (torch, 32349 bytes, 3 tensors)

layers.0.weight f4 [32, 200]
000000 1b ec b7 bd 71 97 35 3e f9 d4 48 3e 59 ca 49 bd
       -0.089805804 0.17733552 0.19612493 -0.04926524
000010 8e 0f 25 be 63 a9 34 3d 1c c8 f1 3d c4 4f ed bd
       -0.16119215 0.044106852 0.11805746 -0.1158748
000020 a1 e9 04 be 02 df 03 be 18 38 b7 bd 5f b2 1c 3e
       -0.12979747 -0.1287804 -0.08946246 0.15302418
000030 8d 5b f2 3c ce 8e 0b bc 0a 4a 37 3e 30 e5 9d 3d
       0.02958467 -0.008517934 0.17899337 0.0770973
000040 cd 5d 0d be 09 f1 a8 bd 98 d9 8d 3d 73 4a 21 be
       -0.13805313 -0.08249099 0.06926268 -0.15751056
000050 c5 6a 4e bd 33 66 0c 3e 8e 0c e3 bd 73 96 00 be
       -0.050394792 0.13710861 -0.11086379 -0.12557392
000060 ec 1e 0e be 64 a3 e2 bc 50 d6 2e 3d 6b d3 13 3e
       -0.13878983 -0.027665801 0.042684853 0.14436118
000070 d5 fe a1 3d ab 63 43 bd 52 04 00 3e ac 7b 67 3d
       0.079099335 -0.047702473 0.12501648 0.056514427
000080 7c 83 e3 bd 5d b0 3c bd 34 c7 00 bc 67 37 ab 3d
       -0.11109063 -0.04606663 -0.007859994 0.083601765
000090 da 4c 99 3b c5 9c 2a bb 8d 44 c4 3c b9 2e cc bd
       0.004678351 -0.0026033383 0.023958469 -0.09969849
0000a0 50 36 b7 3d 6b 1d f0 bd 86 1b fc 3d 87 12 d2 3b
       0.08945906 -0.11724361 0.12309937 0.0064109
0000b0 b3 a0 73 bd c3 b4 77 3d de 6e db bd 26 43 73 bd
       -0.059479427 0.060475122 -0.107145056 -0.05939021
0000c0 b4 e3 1e 3d 8d 99 c3 bd 05 01 02 3e 49 9f 1e 3d
       0.038791373 -0.09550772 0.12695701 0.038726125
0000d0 85 6b 67 3d 96 a9 4a bd 8b 89 18 3d 5d b8 85 3c
       0.056499023 -0.049478136 0.037240546 0.016323263
0000e0 a6 a4 f7 3d 31 07 2a 39 28 ad 75 3c 80 d9 f2 bc
       0.12091951 0.00016215142 0.014994897 -0.029644728
0000f0 3a e6 3e 3d c3 d8 3b bb 50 15 bb 3d 07 9c 03 bc
       0.04660628 -0.0028663136 0.091349244 -0.008032805
000100 52 57 b7 bd 4a 28 db bd 7e b9 d4 bd 9c fc 6d 3d
       -0.08952202 -0.10701044 -0.10386942 0.058102235
000110 f7 f2 bf bd 9c 08 65 bc 80 4e 69 3d d7 19 0e 3c
       -0.09372514 -0.013979103 0.05695963 0.008673153
000120 cb 2e b2 bd e5 88 57 3c 13 c5 db bd c8 b1 f8 3c
       -0.08700331 0.013155197 -0.10730948 0.03035821
000130 42 ec 70 3d a2 3a b3 bc da 70 69 3d 35 47 42 3c
       0.058819063 -0.021878544 0.05699239 0.011857797
000140 26 08 9c bd cd 78 ea bb f1 9a 28 bd a8 9d 68 3d
       -0.07618742 -0.007155514 -0.04116339 0.056790978
000150 6a 6f 1d 3d c2 38 6d 3d 0d 5b ac bd 8d 92 80 3d
       0.03843633 0.057915457 -0.08415804 0.06277952
000160 33 56 c8 3d ad 21 f0 3b e7 34 a5 3d b8 a6 2a 3b
       0.09782066 0.007328233 0.08066731 0.0026039314
000170 1f d9 4c 3d 32 21 ee 3b 2a c9 8f 3d a0 c4 12 bd
       0.05001175 0.007267141 0.07020791 -0.035832047
000180 c8 da d4 3d 92 15 f0 bc 44 af b4 bd 97 64 09 bd
       0.10393292 -0.02930716 -0.08822492 -0.033543196
000190 17 68 a6 bd 70 24 2a bd b7 de fc bc bb 0d 60 bd
       -0.08125322 -0.041538656 -0.030867917 -0.054700594
0001a0 ce cd 50 3d 3f 05 9f bd 55 86 93 bd fd 6a 9a 3d
       0.05097752 -0.077646725 -0.07203356 0.07539938
0001b0 11 4e 32 bc 78 fe 3a 3c ba 97 60 3d f2 b3 46 3d
       -0.01088287 0.011413209 0.054832198 0.048511453
0001c0 95 f7 cb 3c 0f 88 90 3d 55 06 a0 3d 02 54 2c bd
       0.02489833 0.07057201 0.07813708 -0.042072304
0001d0 f2 82 c8 3c fd fa d2 bc cd e1 4e bc 48 5e 5f 3a
       0.024476502 -0.025754446 -0.012627077 0.0008520824
0001e0 28 48 2d bd 61 5f 62 bd 50 d3 91 3b 48 b9 6e bd
       -0.04230514 -0.05526674 0.0044502392 -0.058282167
0001f0 3b 49 ad 3c 82 25 48 bc de ea 5f 3d 1f ab 3e bd
       0.021153083 -0.012215974 0.054667346 -0.046549913
000200 4d c4 c3 3c 40 0a a7 bd 6c 16 92 bd 9f 7d 0f bd
       0.023897314 -0.08156252 -0.07133183 -0.03503191
000210 94 40 19 bd b1 88 b8 bc 55 4b 34 bd 3b a3 dc 3c
       -0.037415102 -0.022526117 -0.044017155 0.026933303
000220 33 af 4d bd c3 80 a7 3d f8 74 8b 3d 56 55 cd bc
       -0.05021591 0.08178856 0.068094194 -0.025065105
000230 89 23 81 3d c7 6c 8a 3c a8 17 87 3a af 9d f0 bc
       0.06305606 0.016897572 0.0010306733 -0.029372064
000240 78 3f 07 3d 40 fb 63 bc 51 04 e1 3c ff ef d9 bb
       0.033019513 -0.013914883 0.027467879 -0.006650924
000250 d1 ed 38 3d f0 56 97 3d 6b e6 62 bd f0 32 86 bc
       0.045148674 0.07389629 -0.055395525 -0.01638171
000260 19 9f 20 bc 5a 2d 7e bd da 4c 88 3c dd 0d 83 bc
       -0.009803557 -0.06205497 0.016638208 -0.015997821
000270 a1 2a 78 3d e8 0b 45 bd 74 f1 37 3d 3a ef c5 bc
       0.06058753 -0.048107058 0.044908002 -0.024161924
000280 bd 31 2b bd 16 18 28 3c c8 23 80 bd c8 60 48 3b
       -0.04179548 0.010259649 -0.06256825 0.0030575264
000290 d1 ba 6f bd 3d f8 68 3d 95 fc 4e bd df 7b 96 3d
       -0.05852777 0.056877363 -0.05053385 0.07347845
0002a0 00 f0 ba 3b c0 6e 00 bd 8f 8d 85 bc 03 2e b7 3b
       0.0057048798 -0.03135562 -0.016302852 0.005590202
0002b0 1d 4f 8b bd f7 1a b8 bc 4d ae de 3c 8c 04 c9 bc
       -0.06802199 -0.022473795 0.027182722 -0.024538301
0002c0 cb 07 f8 3c fc f7 40 bd d3 28 c8 bb 66 cb 3c bc
       0.030277153 -0.047111496 -0.0061083823 -0.011523103
0002d0 31 71 37 bc 43 91 0f 3d d1 dd 5a bd 43 33 6e 3d
       -0.0111964205 0.03505064 -0.053434197 0.058154356
0002e0 e4 aa f9 3c 9d 5c 3e bc d0 3b 4b 3d ca eb 0e bc
       0.030476995 -0.01161876 0.04961759 -0.008723209
0002f0 ef 62 86 3d a9 6d 7f bd 74 1e 87 bd 15 7e c1 bb
       0.06561839 -0.06236044 -0.06597605 -0.0059049227
000300 99 c9 87 bd 69 2c b0 bc 6d 9b 33 bd 62 ce 80 3b
       -0.066302486 -0.021505551 -0.043849397 0.0039308527
000310 d4 82 68 bd 19 79 8c bb df 05 86 bd 08 57 2e bd
       -0.056765392 -0.004286897 -0.065440886 -0.04256347
000320 04 1c b1 bb 81 82 84 bb 28 aa 5a 3e 36 a5 20 be
       -0.005404951 -0.0040438776 0.21353972 -0.15688023
000330 cc f3 84 bd 64 b1 0b 3e ee 31 16 3d 01 b0 fa bd
       -0.06491813 0.13641888 0.03666871 -0.12240601
000340 89 8c 72 bd 23 53 d1 bd 09 55 f4 bc 3b 62 87 3d
       -0.059216056 -0.10220935 -0.029825704 0.06610533
000350 17 d3 ae 3d 6b 40 43 3d ed 83 75 bc f8 84 34 3e
       0.08536356 0.047668856 -0.014985067 0.17628849
000360 26 31 10 3d c2 08 11 3d 21 d1 d8 3d ec 16 62 3c
       0.03520312 0.035408743 0.10586763 0.01379941
000370 b1 c3 96 bc b2 0b 24 bd fc a7 ab bc c9 cf 1e 3d
       -0.01840386 -0.040050216 -0.020954125 0.038772378
000380 5e 22 9b 3d 21 86 c6 bd f0 bd 0b be f1 73 f5 3d
       0.075749144 -0.09693552 -0.13646674 0.11985005
000390 4c 4e 10 be 37 61 a3 bd 29 5e 80 3d 58 8e 15 3e
       -0.14092368 -0.07977527 0.062679596 0.14605081
0003a0 99 42 1a 3d eb 1e fe 3d e4 0b 83 bd 91 10 19 be
       0.03766117 0.12408241 -0.06398752 -0.14947726
0003b0 4c c1 04 3e e7 36 c1 3d 76 3c 84 bd 28 74 5c 3d
       0.12964362 0.094343 -0.064568445 0.053821713
0003c0 ab 43 ce 3d ab 2a aa 3c 5c 58 8a 3d e3 c2 f6 3d
       0.100715004 0.020772299 0.067551345 0.120488904
0003d0 c0 99 42 3d e9 62 03 be 6e 61 9c 3d 86 d1 60 bd
       0.04750991 -0.128307 0.07635771 -0.054887317
0003e0 b7 4d aa 3d a3 4f 02 be af 0b e2 bc 6b 90 89 bd
       0.08315604 -0.12725691 -0.027593462 -0.06716999
0003f0 21 c2 ef 3d e5 9f 00 3e da e9 ec 3c 8c e1 69 bd
       0.11706949 0.12560995 0.028920103 -0.057099864

layers.2.weight f4 [32, 32]
000000 51 6a 67 3b 45 c9 b2 bd 11 c5 94 bc 9b 9d 63 bc
       0.0035311172 -0.08729795 -0.018160375 -0.013892557
000010 1d ae 07 3d a9 82 21 3e d0 8f 06 3e 02 98 54 3e
       0.03312503 0.15772499 0.13140798 0.20761111
000020 85 c0 00 3e 21 3f 0c 3e 61 e2 23 3e f9 f9 33 3d
       0.1257344 0.13695957 0.16004325 0.043939564
000030 94 16 68 3e 47 e6 10 3e bc b7 b6 3d a1 b3 86 3d
       0.22664863 0.14150344 0.08921763 0.0657723
000040 a7 80 84 3c 05 87 26 bd 1f a6 37 3e bd f0 6d 3e
       0.016174627 -0.04065611 0.17934464 0.23236366
000050 03 a6 e3 3d 2f fd 83 3d 6e 48 14 3d 86 38 a2 3c
       0.111156486 0.06444775 0.036201887 0.019802343
000060 18 1c 13 bd f7 14 f1 3d b2 01 9b bc 7b e1 fd 3a
       -0.035915464 0.11771577 -0.018921707 0.0019369567
000070 43 c0 d8 3d a7 c5 cd 3d ff f0 aa bd e0 dd 39 3e
       0.10583546 0.10047465 -0.083467476 0.18151045
000080 f2 ba 96 bd c2 b5 68 bd f0 aa f0 3d c5 6d 21 3e
       -0.07359876 -0.056813963 0.11751354 0.1576453
000090 b7 e6 c6 bd 22 f6 0a 3e d4 8d 5a 3d be 72 c2 bb
       -0.09711974 0.13570455 0.053357914 -0.0059340885
0000a0 a9 07 33 3e 24 46 22 bd c3 be 17 3e 11 1f 93 3c
       0.17483391 -0.039617673 0.14818864 0.01795915
0000b0 55 20 07 3e 9a 58 22 3e 6e e0 b2 bd cd a1 42 3e
       0.13195927 0.15854111 -0.08734213 0.19007035
0000c0 e9 d1 31 bd 3b 6d 7e 3d c8 61 e2 3c 40 f0 5a bd
       -0.043413077 0.06211589 0.027634516 -0.053451777
0000d0 6a 8a 96 3d 99 65 f0 bd 2e 37 f9 3d 0c bc a0 3d
       0.07350619 -0.11738128 0.12168728 0.07848367
0000e0 6e 5c 14 3e c5 67 94 bd ae db b9 3d 43 c3 39 3d
       0.14488384 -0.07246355 0.09075104 0.04535223
0000f0 88 1d 4a 3e 97 2d 59 3d 71 e5 0c be d3 12 ad 3d
       0.19737828 0.053021993 -0.137594 0.08450856
000100 24 4f 11 3d 42 bf 1c be e8 87 1c 3e 85 c3 30 be
       0.035475865 -0.15307334 0.15286219 -0.17262085
000110 a8 cd 6a 3d ac ab ba 3d ff cc 9b 3d 68 f0 16 be
       0.057325035 0.09114775 0.07607459 -0.14740145
000120 a6 a0 95 3d de 67 30 be a6 04 18 3e 38 08 02 3e
       0.07306032 -0.17227122 0.14845523 0.12698448
000130 f7 9d d7 bd 51 7a 09 be 25 d9 0b be d9 fe 22 be
       -0.10528176 -0.13425566 -0.13657053 -0.15917529
000140 c1 36 00 be a0 e6 c8 bb 56 48 35 3e ed a3 29 be
       -0.12520887 -0.0061310083 0.17703375 -0.16566439
000150 ef 37 1a 3d fd ef 17 3e f6 b7 ab 3d 5a c1 fb 3d
       0.037651 0.14837642 0.08384697 0.12292738
000160 5b 62 07 be 11 1c ed bd 1f 99 84 bd 59 1c c6 bd
       -0.13221113 -0.11577619 -0.06474518 -0.09673376
000170 92 ee 2b be 81 49 35 bd c9 c1 c8 bd 76 d6 37 3d
       -0.16790226 -0.044259552 -0.098025866 0.04488226
000180 72 6e 2f 3c 62 d4 ee bd 01 a8 35 be 1f 35 f8 3c
       0.010707485 -0.116616026 -0.1773987 0.030298768
000190 52 21 8a bd 6b 90 05 bd 14 7c 93 bd bd 45 30 be
       -0.067446366 -0.03260843 -0.072014004 -0.17214103
0001a0 5d 51 a9 3d 87 7a 7c 3d fa 2d 04 be 36 cb 03 3e
       0.08267472 0.06164029 -0.12908164 0.12870488
0001b0 21 02 d5 bd ba 46 10 be 3b dd 11 3e 82 c1 97 3c
       -0.10400797 -0.1408948 0.14244549 0.018524889
0001c0 ac 7e 35 be 4f e4 66 3d df 3f ef bd 88 13 b4 3d
       -0.17724103 0.056370076 -0.11682104 0.08792788
0001d0 28 e9 76 bc 01 ec e2 bd 4d fa 90 bd f8 1c f2 bd
       -0.015070237 -0.110801704 -0.07078991 -0.118219316
0001e0 c3 c9 09 3e a6 3e 96 bd 93 27 0c 3d cb 37 0f be
       0.13455872 -0.07336168 0.03421743 -0.13986127
0001f0 9a c8 74 bd bd f6 48 3d a2 37 23 be 82 bc c6 bd
       -0.05976162 0.049063433 -0.15939191 -0.09703924
000200 c8 57 08 be 34 6a 6f 3d 50 7c eb 3c d2 29 37 be
       -0.13314736 0.058450893 0.0287458 -0.17887047
000210 09 0e 11 3e d2 49 26 3e 02 11 e1 bb f6 01 ca bc
       0.1416551 0.16239098 -0.0068684826 -0.024659138
000220 0a 3a 35 3e c5 6d 21 be 68 d0 85 bc 1e 7c 2c 3e
       0.17697921 -0.1576453 -0.016334727 0.16844222
000230 d0 2c 07 3e 0f ae 89 3d d0 83 a5 bd 8b 6f bd 3d
       0.13200688 0.06722652 -0.08081782 0.09249791
000240 32 5d 13 3d 09 4f ae bd 35 95 28 be 2b 72 67 bd
       0.03597755 -0.085111685 -0.16463168 -0.056505363
000250 85 7a cc 3d 01 fa 36 3e 04 2f e4 3d dc 0f 04 3c
       0.09984306 0.17868806 0.1114178 0.008060422
000260 03 ff 20 be 07 81 a7 3d fd b6 33 be 6e 1a 13 3e
       -0.15722279 0.08178907 -0.17550273 0.14365551
000270 c6 ad bc 3d cc 63 12 3e 9d 20 5e 3d 20 5b 1a 3e
       0.09212832 0.14295882 0.05423032 0.15073824
000280 ec b6 d9 3d d1 55 e7 ba 52 1d dd 3c 8e 82 27 3e
       0.10630593 -0.0017649477 0.02699152 0.16358396
000290 8e 99 ec bd 94 a2 a9 3c a9 fd 84 3d 19 46 07 be
       -0.11552726 0.020707406 0.06493694 -0.13210334
0002a0 80 59 06 be f7 6a fe bd 58 d2 ce 3b ce a8 fa bd
       -0.13120079 -0.12422746 0.006311696 -0.12239228
0002b0 92 d7 fd bd d8 d5 31 3e 5d 9d ae 3d 10 f4 2e bd
       -0.123946324 0.17366731 0.085261084 -0.042713225
0002c0 25 25 8c bd 21 24 bb 3d 1b 09 7b 3d 9d a5 14 be
       -0.06843022 0.091377504 0.06128798 -0.14516301
0002d0 09 de 06 3e 37 14 cc bc fc 32 c6 3d c1 fb a6 bd
       0.13170637 -0.024911983 0.09677693 -0.08153487
0002e0 52 2b 0f bd de 01 13 3e 2e 8d cc 3d d9 ea b1 bd
       -0.034953423 0.14356181 0.099878654 -0.08687372
0002f0 b8 7d b4 bb 50 13 26 3e 28 57 aa bd ab a5 c4 bd
       -0.005508151 0.16218305 -0.08317405 -0.09601911
000300 eb 85 cf bd 07 57 1a be 77 4f 36 be f5 c3 17 be
       -0.10132965 -0.15072261 -0.17803751 -0.14820845
000310 24 30 0f 3e fc fa f4 bc 4a fa 72 bd c5 80 2d 3e
       0.13983208 -0.029904835 -0.059320726 0.16943653
000320 ec 7c 97 bb 86 ae 0d 3d ce 08 90 3d 25 59 a8 bd
       -0.004623046 0.034590267 0.07032929 -0.08220128
000330 94 56 a2 3d da 8a 14 bd bd 9d e8 bc a0 20 a8 3d
       0.0792667 -0.03626523 -0.028395528 0.08209348
000340 d7 0b 34 bc ef 7d 04 3e ec 93 c4 bd cb 9c b4 bc
       -0.010989151 0.12938665 -0.09598526 -0.022047421
000350 a0 d9 1c 3e 73 07 b7 3d 6a 67 e6 bc 7a 58 f3 3d
       0.15317392 0.08936968 -0.028125484 0.1188211
000360 33 42 94 bd 09 46 a0 3c 62 23 63 bc 64 95 aa bb
       -0.07239189 0.019564645 -0.013863416 -0.005205797
000370 7a 93 16 3e 27 39 55 bc 6f d1 ec bd 7a e7 c9 3d
       0.14704695 -0.013014114 -0.11563384 0.09858604
000380 9b b1 0b bc a0 49 76 bd db 0a c9 3d aa a0 08 3d
       -0.008526231 -0.060128808 0.09816524 0.033356346
000390 f6 b7 de 3d ba de 33 3d fe fc 10 bc 37 90 b0 3d
       0.108749315 0.04391358 -0.008849381 0.08621257
0003a0 a4 a2 29 be 37 bb 11 be 51 b9 3c bc 75 33 8b bc
       -0.16565949 -0.14231573 -0.011518792 -0.01699231
0003b0 de bb fc 3d fe 4f 08 bd 04 47 16 be 08 ae d8 bd
       0.1234052 -0.03327941 -0.14675528 -0.10580069
0003c0 10 0a df bd e5 ee 1f be 39 fd ff bd 28 b9 f8 bd
       -0.10890591 -0.15618475 -0.1249947 -0.12144691
0003d0 02 83 f9 3c ca ca df bd 64 45 68 3d 63 8d 14 be
       0.030457977 -0.10927351 0.0567068 -0.1450706
0003e0 e2 b9 0f 3c 67 2c 8b bd 01 50 dc bd bb d9 f0 bc
       0.008772345 -0.067955784 -0.10757447 -0.029400697
0003f0 7a 18 c4 bd 58 5a d6 bd ba a4 a1 3d 76 1c e3 3d
       -0.09574981 -0.104664505 0.07892747 0.11089413

layers.4.weight f4 [1, 32]
000000 3d 59 cc 3e 06 36 49 3e 9f 03 a6 3d 7d 53 e3 bd
       0.39911833 0.19649515 0.081061594 -0.110999085
000010 0e e7 37 3e 33 c9 e7 bc 6b cc 9c 3d c4 a6 85 bd
       0.17959234 -0.028294181 0.07656177 -0.06525949
000020 7b cd 58 3e 86 c7 82 3d b4 57 23 be 85 5b 0f be
       0.21172135 0.06385712 -0.15951425 -0.13999756
000030 67 55 03 3f 95 e1 26 3e 5f 44 1f 3e 9f d1 83 bd
       0.5130219 0.1629699 0.15553425 -0.064364664
000040 4a 26 5f bd 85 7c db bc 39 13 7a bd 1b e1 89 3e
       -0.054479875 -0.026792774 -0.06105349 0.26929554
000050 83 23 20 3d 88 25 06 be 81 64 83 3d 7a 1f f3 bd
       0.039096367 -0.13100255 0.06415654 -0.11871238
000060 ca 3d 36 3e aa dc fe 3c 27 81 9e 3e 57 8b c2 bd
       0.17797008 0.03111108 0.3095791 -0.09499233
000070 8d 36 92 3e 43 8e 8c 3e d2 db fb bc c9 61 24 be
       0.28557244 0.27452287 -0.030744467 -0.16052927
