platoon_gym/ctrl/models/vel_dyn_lyap_pf_10_8_8_1_leaky_relu_guided_5_vehs.pt (torch, 3066 bytes, 3 tensors)

layers.0.weight f4 [8, 10]
000000 95 bd a3 3e 1b 9e 16 3f bc c9 8a bd e8 65 5c bd
       0.31980577 0.58835 -0.06776759 -0.053808123
000010 f1 b0 48 bd ee ea 02 bd 9c f3 e2 3c 3e 5d ab 3c
       -0.04899687 -0.031962328 0.027704053 0.020918485
000020 e1 fd 05 3c 0a 33 2b bd e7 1b 1e 3d 7a 03 94 3e
       0.008178205 -0.04179672 0.03860083 0.28908902
000030 92 42 1c 3e 92 24 16 be 1b 6c d2 bc 51 6c e0 be
       0.1525977 -0.14662388 -0.025686314 -0.4383264
000040 69 98 9b 3c 27 9e 38 3d 62 4e d8 3c ce 69 94 3c
       0.018993573 0.0450727 0.026404563 0.018116858
000050 3b c9 2e 3f 09 47 b6 3e 42 86 21 3d 8e c0 0e 3d
       0.68275803 0.3560107 0.03943468 0.034851603
000060 dd 17 55 bd a2 7c bf bd 2c 70 4a 3d 43 c0 3f 3d
       -0.05202471 -0.09349944 0.04942338 0.046814214
000070 61 d4 73 3c fd 85 04 bd 5d cc 10 be ca 4d 92 be
       0.014882178 -0.032354344 -0.14140458 -0.28574973
000080 d1 ae 18 3e 51 f0 f1 3e 27 ad 9b bc c4 6c 9f 3c
       0.14910437 0.4725366 -0.019003464 0.019461043
000090 47 c7 6d bd fa 1b 56 bd 2a 83 6d ba d6 25 b8 3b
       -0.058051374 -0.052272774 -0.00090603775 0.005619745
0000a0 4d 8b 9f be 45 61 c0 3d 5d 3b 15 be 09 52 a0 3d
       -0.31160966 0.09393553 -0.14573427 0.07828147
0000b0 09 08 c3 be 64 a0 4d 3e 42 f8 43 be be 14 30 3e
       -0.38092068 0.20080715 -0.19137672 0.17195413
0000c0 d3 ce 22 3d 51 dc d0 3d 2b 0a 06 3e 33 07 cc 3d
       0.039748024 0.10198272 0.13089816 0.09962311
0000d0 c4 10 72 be d8 23 ec be 4d 43 fc 3d 9d cd 8b 3e
       -0.23639208 -0.46121097 0.12317524 0.27305308
0000e0 90 9d 6a bd 3f d5 16 be 1d 1e 21 bc 74 32 02 3d
       -0.05727917 -0.14729784 -0.00983384 0.031786397
0000f0 55 7e 70 be bd c9 25 bf 66 a5 dd 3b dd d7 60 bd
       -0.23485692 -0.64760953 0.006764102 -0.054893363
000100 f1 ac 55 bc b7 b6 30 3d d7 6f 8e 3d ec 16 14 3e
       -0.013041721 0.043143 0.069549255 0.14461869
000110 c7 85 4b 3d 34 90 60 bc bd 66 45 be fb aa 14 bf
       0.049688127 -0.013706256 -0.19277473 -0.58073395
000120 21 12 44 3e 20 ca 0d be 0e b8 c4 3d 4f 93 7e be
       0.1914754 -0.13846636 0.09605418 -0.24860881
000130 35 67 a2 3d 6e 84 23 be 9e e6 ad 3d 16 9c 3c bd
       0.079298414 -0.15968487 0.08491252 -0.046047293

layers.2.weight f4 [8, 8]
000000 14 d3 84 be 29 b0 a0 be 5f c2 73 be b6 0a 4b be
       -0.2594229 -0.313844 -0.23804615 -0.19828305
000010 d0 3a 4c 3d 07 9f 16 bd 1f 14 22 3e 0a 41 a4 3e
       0.049860775 -0.036772754 0.15827988 0.3208087
000020 cc e3 87 3e a8 6f 3b 3e b6 b6 b4 be f2 02 b5 3e
       0.26540983 0.18304312 -0.35295647 0.3535381
000030 9e b2 c3 3d 52 8f e1 3d 4d 2e 93 3e cc 3d ca be
       0.09555553 0.11013664 0.28746262 -0.39500272
000040 f8 09 86 be 93 dc fc 3c fb cd 08 3f 57 12 88 3e
       -0.2617948 0.030866897 0.534393 0.26576492
000050 c4 5a e0 3d 10 50 37 3e 54 b9 ee 3e 02 85 36 3e
       0.10954812 0.17901635 0.4662577 0.17824176
000060 05 e7 46 3e ad 93 ab be ad 95 09 3e bf f1 e7 bd
       0.19424064 -0.33511105 0.13436003 -0.11325406
000070 24 0e 41 3e 1f 35 06 be a8 c1 ef be 37 40 dd bd
       0.1885305 -0.13106202 -0.46827435 -0.10803264
000080 dd 7e 16 bf 33 12 cc be 1a a5 8d be cc a3 35 bf
       -0.5878733 -0.39857635 -0.27665025 -0.7095306
000090 80 c7 a5 3a 68 61 7e be 04 ce d7 be 9a 9d 91 bd
       0.0012647957 -0.24841845 -0.42149365 -0.07110138
0000a0 61 f0 b2 3e 76 e2 22 3d 47 3b 97 bd f8 79 4b be
       0.3494902 0.03976675 -0.07384353 -0.19870746
0000b0 59 e8 8e 3c f2 d9 bd 3e cb 7a 85 3e b1 0d 76 3e
       0.017444776 0.37080342 0.26070246 0.2402866
0000c0 a3 2d f2 3e 22 e6 1e 3e e2 3e 93 3e 45 2d fc 3a
       0.47300443 0.15517476 0.28758913 0.0019239566
0000d0 00 ed c1 bd b1 dc 74 3e 36 1d 60 be 22 20 15 be
       -0.09469032 0.23912312 -0.21886143 -0.14563039
0000e0 e6 43 42 3f 72 db bb 3d 5f 30 55 be 73 b9 f3 3e
       0.75884855 0.09172715 -0.20819233 0.47602424
0000f0 7c 7b 07 be ba 81 0f 3e a0 ef 17 be db 29 f9 3d
       -0.132307 0.1401433 -0.14837503 0.121661864

layers.4.weight f4 [1, 8]
000000 49 64 6d 3d 0f 69 36 3f 24 40 07 3e f1 b1 7c be
       0.057956968 0.71254057 0.13208061 -0.24677254
000010 56 5d 3e bf 16 97 28 3e b3 9c 51 3e e2 08 88 3e
       -0.7436117 0.16463885 0.20469932 0.26569277
