platoon_gym/ctrl/models/vel_dyn_lyap_pf_10_8_8_1_leaky_relu_guided.pt (torch, 3017 bytes, 3 tensors)

layers.0.weight f4 [8, 10]
0.03268264 -0.27183244 -0.01860456 -0.001189755 -0.24812041 0.46712455 -0.13823912 0.26645476
0.031668853 0.23190464 0.10169141 0.49134934 0.1568091 -0.58661693 0.03162009 -0.06890453
0.05796445 0.17349663 0.08172997 0.035563286 0.19208445 0.2488087 0.10223449 0.25166976
0.08965541 0.03642662 0.17225868 0.010381251 0.14401886 0.064019024 0.17290062 -0.51607996
-0.08089585 -0.15896164 0.1687977 0.16797122 -0.0074875206 -0.24303025 -0.16750388 0.21993263
-0.2789266 0.32048967 -0.10513472 0.36622214 -0.0060412865 0.053067826 0.0068799052 -0.025052173
0.0067953854 0.04523515 0.023179952 -0.35155424 0.14042917 0.065411784 0.09568421 -0.653979
-0.045788825 0.09365235 -0.063580886 0.09894763 0.011012819 -0.22142893 0.09425176 -0.17515266
0.14010261 0.040534984 0.11870448 -0.49872172 0.03525519 -0.1476331 0.09108046 -0.28792486
-0.07647949 0.1409602 0.026879067 -0.062755436 0.13312557 0.27342755 0.06103157 -0.578305
00000000: 3bde 053d 9f2d 8bbe 9768 98bc 8ef1 9bba
00000010: 4713 7ebe f32a ef3e 8e8e 0dbe c26c 883e
00000020: 33b7 013d 6978 6d3e 9643 d03d 2492 fb3e
00000030: 9192 203e 872c 16bf 1184 013d d11d 8dbd
00000040: 226c 6d3d 1aa9 313e 0b62 a73d cfaa 113d
00000050: c9b1 443e b5c7 7e3e 5160 d13d dcda 803e
00000060: 419d b73d 1434 153d 9464 303e 1f16 2a3c
00000070: ae79 133e 681c 833d dc0c 313e d11d 04bf
00000080: b9ac a5bd d7c6 22be 4ed9 2c3e a600 2c3e
00000090: e059 f5bb ecdc 78be 2386 2bbe 0536 613e
000000a0: 78cf 8ebe 3917 a43e df50 d7bd 7881 bb3e
000000b0: fcf5 c5bb a65d 593d d470 e13b 373a cdbc
000000c0: d3ab de3b 7e48 393d e2e3 bd3c ebfe b3be
000000d0: aacc 0f3e 9df6 853d 15f6 c33d 2b6b 27bf
000000e0: 108d 3bbd cecc bf3d b236 82bd 0ea5 ca3d
000000f0: 1c6f 343c 44be 62be 1107 c13d 385b 33be
00000100: 0f77 0f3e 0308 263d 561b f33d 7458 ffbe
00000110: bf67 103d 222d 17be 6488 ba3d e36a 93be
00000120: 47a1 9cbd df57 103e 7d31 dc3c ec85 80bd
00000130: 1252 083e b2fe 8b3e 3dfc 793d cc0b 14bf

layers.2.weight f4 [8, 8]
0.3273295 0.3842877 -0.041045632 -0.2777506 0.17139612 0.15385693 -0.19515054 0.2714601
-0.012410284 -0.16221139 -0.27879283 0.18313755 0.20744808 0.05881266 0.0676492 -0.23794682
0.43096974 -0.106251076 -0.12675326 0.12477467 -0.012888328 0.228141 0.22674072 0.27934718
0.11710167 0.26223874 -0.3384856 -0.09794877 0.41784257 0.04461224 0.07233655 -0.020528033
-0.3074753 -0.41323197 -0.1997789 -0.038336217 0.048252795 -0.44445947 0.19792882 -0.115212694
-0.41412657 0.3277448 -0.1537367 0.06764243 0.1932583 -0.48273927 0.09823915 0.018114127
0.20130938 -0.05425829 0.021382848 0.28008628 0.30136243 0.05977965 0.28685024 0.13960372
0.010173675 -0.06508085 0.16967942 0.124538794 0.40721688 0.2788439 0.22602509 -0.23550498
00000000: bb97 a73e 5bc1 c43e 771f 28bd 5435 8ebe
00000010: 7782 2f3e ac8c 1d3e 8bd5 47be d1fc 8a3e
00000020: 8154 4bbc be1a 26be efbd 8ebe 6988 3b3e
00000030: 456d 543e 8be5 703d aa8b 8a3d 55a8 73be
00000040: 11a8 dc3e 2a9a d9bd 9bcb 01be dd89 ff3d
00000050: 9129 53bc cb9d 693e b82e 683e 9806 8f3e
00000060: 00d3 ef3d 2844 863e fc4d adbe 5d99 c8bd
00000070: 76ef d53e 53bb 363d 2f25 943d 682a a8bc
00000080: 676d 9dbe 2493 d3be d792 4cbe 7006 1dbd
00000090: b9a4 453d 3190 e3be daad 4a3e a2f4 ebbd
000000a0: 6608 d4be 2bce a73e 276d 1dbe 1d88 8a3d
000000b0: 81e5 453e 9a29 f7be 9c31 c93d 1464 943c
000000c0: 0c24 4e3e f13d 5ebd 152b af3c 7867 8f3e
000000d0: 2d4c 9a3e 82db 743d 09de 923e 47f4 0e3e
000000e0: 7caf 263c 1c49 85bd 71c0 2d3e 320e ff3d
000000f0: bb7e d03e a1c4 8e3e 1f73 673e 3828 71be

layers.4.weight f4 [1, 8]
0.19999312 -0.06256012 0.3576256 0.41697687 -0.06162616 0.1674349 0.13915677 0.27259865
00000000: ffca 4c3e 851f 80bd b41a b73e fe7d d53e
00000010: b66b 7cbd 0e74 2b3e 1d7f 0e3e 0d92 8b3e
