platoon_gym/ctrl/models/vel_dyn_ctrl_pf_102_32_32_1_leaky_relu_guided_100_vehs.pt (torch, 23074 bytes, 5 tensors)

layers.0.weight f4 [32, 102]
000000 24 e8 4d 3e 26 b3 22 3f cb 71 99 3e cb 5f 9b bb
       0.20108086 0.6355461 0.2996963 -0.004741644
000010 b3 77 b5 3d 8a 6a 0e be ef 31 c7 bc e5 6b 34 3e
       0.088607214 -0.13907829 -0.024315802 0.17619283
000020 b8 82 0c 3d 64 9a d5 3d b1 43 b9 3d 94 a2 9b bc
       0.03430435 0.10429838 0.09046114 -0.018998422
000030 4e a8 72 bd 14 bd 0f 3e 5a f8 95 bd 3a 8a 63 bc
       -0.05924254 0.14036971 -0.0732276 -0.013887936
000040 9d 22 d5 3c 69 b3 cc 3d a1 a0 84 3d 3c f0 8f bd
       0.026017481 0.09995157 0.0647595 -0.07028243
000050 28 53 13 3d 60 2b 05 bc b9 85 af bd 60 43 38 3d
       0.035967976 -0.008128017 -0.085704274 0.04498613
000060 d4 da c5 3c 0e 3d 29 3d e7 57 b9 3d b9 37 55 3d
       0.024152197 0.041317992 0.09049969 0.052055094
000070 a8 d1 ce 3d 4c 4d 29 3d ac 9e d4 3c c2 63 01 bd
       0.100985825 0.04133348 0.025954567 -0.031589277
000080 1d a7 32 bb 01 08 a5 3c 0d ed 7e 3d a8 f3 96 bd
       -0.0027260252 0.020145418 0.062237788 -0.073706925
000090 d0 21 83 bd e9 8d 86 bc 4a 20 4d 3d 9e 3b ef bc
       -0.064029336 -0.01642509 0.05007962 -0.029203232
0000a0 f8 53 a1 bd e0 b7 5f 3a b8 3b d0 3d c7 b8 91 bc
       -0.07877344 0.00085341744 0.101676404 -0.017788304
0000b0 a8 37 0d 3d 6a 4e 44 bd ac 32 0f 3d fe fa cb 3d
       0.034476906 -0.047926344 0.034960434 0.09959982
0000c0 c1 35 93 3d 16 a4 58 bd 66 43 9c 3c 44 56 c3 bc
       0.07187987 -0.05289086 0.019075107 -0.023844846
0000d0 67 1a 1f bd 9f 43 1e 3d 15 ef 88 3d f4 e2 b0 bd
       -0.03884354 0.038638707 0.06686226 -0.08637038
0000e0 ef ec c2 3c ab 30 df 3c 71 ec 87 bc 15 ad 6a bc
       0.02379462 0.027244886 -0.016592236 -0.014323493
0000f0 fe d3 d0 3d c7 69 2d 3c 55 4e 6f 3b 6f e4 61 3d
       0.10196684 0.010584301 0.0036515195 0.055149492
000100 a2 2c a0 bc 66 da 66 bd 72 f3 a5 bd 05 0a 2b 3d
       -0.019552533 -0.056360625 -0.08103074 0.041757602
000110 91 5a 97 3d 1d 4f ab 3c de fa 53 3d e6 f6 ad 3c
       0.07390321 0.020911748 0.051752917 0.021235894
000120 1d 77 95 3d 39 f5 a2 bd 6d a6 60 3d fb 0b b7 3d
       0.0729811 -0.07956929 0.054846216 0.08937832
000130 21 23 96 3d 1f 1c 62 bd d9 eb 2c bc d8 2d ac bd
       0.07330919 -0.0552026 -0.010554277 -0.084071815
000140 2e 05 89 bb 91 42 15 3d 5f 29 85 3d e5 d1 4e 3d
       -0.0041815257 0.036440436 0.065020315 0.05049314
000150 e9 71 2f bd 72 2e 6d bc 46 0b 39 3c 7a 00 01 3d
       -0.042833243 -0.014476405 0.011294192 0.031494595
000160 37 cb 6d 3c b2 40 20 3d 07 58 4a 3d ca 99 06 3e
       0.014513782 0.0391242 0.049400356 0.13144603
000170 d0 0c ab 3d ca c2 3c 3c 0a cc 3c bc 2f ad ad bd
       0.08352053 0.011521051 -0.011523256 -0.08480298
000180 46 ae a5 bd 3f 26 77 bd 11 e2 1e 3d 78 53 3b bd
       -0.08089881 -0.06033921 0.038789812 -0.0457339
000190 00 a1 af 3d d9 ce a6 bd 58 8c d8 3c 40 87 c7 3e
       0.0857563 -0.08144922 0.026434109 0.38970375
0001a0 2c fc 8e 3e 76 d0 c1 bd 77 4d 1b bd 3b 1a 5f 3d
       0.27926767 -0.09463589 -0.037915673 0.054468375
0001b0 7d 91 00 3d 4e 87 12 3e 0c 7e 4e 3d 04 7f 35 bd
       0.03138875 0.14309427 0.050413176 -0.044310585
0001c0 2a 14 b9 3d 29 b5 c5 3d 23 51 98 3d c0 3b ab 3c
       0.09037049 0.09653694 0.074373506 0.020902514
0001d0 fb 12 08 3d a7 f8 5b bb 63 07 83 3c 4f b2 8f bd
       0.033221226 -0.0033564956 0.015994733 -0.070164315
0001e0 a9 b9 37 bc 64 c9 94 bd f3 54 32 3c 80 ca 8d 3c
       -0.011213698 -0.07264975 0.010884511 0.017308474
0001f0 42 33 80 3c d7 3b a7 bd 5e c7 6b 3c 77 ac f2 3c
       0.015649442 -0.081657104 0.014390795 0.029623253
000200 7a 2e ff 3c 88 2a 9f 3d c2 45 71 bd 22 bc 37 bd
       0.031150091 0.07771784 -0.058904417 -0.04485715
000210 92 54 b0 3d ff 0f 88 3d ce 07 a2 3d 04 ba a9 bc
       0.086098805 0.06643676 0.07911645 -0.020718582
000220 ae e3 a8 bd a5 c8 73 3c 01 22 c2 3d 67 61 28 3d
       -0.082465515 0.01487938 0.09479142 0.041108515
000230 2e 15 1d bd 0d c4 3c bd 15 5a 5d bd ba 23 44 bc
       -0.038350277 -0.046085406 -0.054040987 -0.0119714085
000240 3d c3 6b bd d3 67 18 bc 94 8c ab 3d 11 1f 15 bd
       -0.05755924 -0.009302097 0.083764225 -0.03640658
000250 5e 41 93 bd 98 4c 4e bd 91 64 9a 3d 8b e9 d0 3b
       -0.07190202 -0.050366014 0.07538713 0.0063754967
000260 51 ad e3 3c 7e 44 4f bb e5 8c 96 bd 84 53 20 3d
       0.027792605 -0.0031626518 -0.07351092 0.039142147
000270 69 6e 32 3d 42 4f 96 bd d4 68 b0 3d a2 b0 fd 3c
       0.043562327 -0.07339336 0.086137444 0.030968014
000280 32 4b 56 3d ad b4 73 bd 3b 17 8a bd 48 cc 51 3c
       0.052317806 -0.059498478 -0.06742712 0.012805052
000290 bd c3 c1 bd 25 db aa bc 4c cc ca 3a f2 77 61 bd
       -0.09461162 -0.02085645 0.0015472262 -0.05504603
0002a0 0f e5 52 bd 07 92 be bd c9 98 58 bd 3d 54 76 3a
       -0.05148798 -0.09305196 -0.052880082 0.0009396708
0002b0 66 76 7e 3d 2e 63 8b bc 36 a7 ef bc c7 2f 06 bd
       0.062124632 -0.017015066 -0.029254537 -0.032760408
0002c0 84 a2 10 bd bc 3f be bd 1b a3 c5 ba 80 ce 4f bd
       -0.035311237 -0.092895 -0.0015078516 -0.050734043
0002d0 c4 4b 8b 3d 63 31 fe 3b 3f e1 ff bb 16 a4 50 3c
       0.068015605 0.007757352 -0.007808834 0.012734434
0002e0 bd f1 34 bc c6 a4 71 bd 98 94 b7 3b b2 43 c7 bd
       -0.011043963 -0.05899503 0.0056024306 -0.09729709
0002f0 c9 27 ac bd 60 ff 6d bd ab 80 86 3d 4f 69 51 bd
       -0.08406026 -0.058104873 0.0656751 -0.05112582
000300 6a 20 71 bd 2b 07 d0 bd 2a 16 72 bd 6a 0a d4 bc
       -0.058868803 -0.10157617 -0.05910317 -0.025883872
000310 f3 93 a9 3d d3 35 18 3d 27 8d 6c 3d c4 34 cd 3b
       0.08280172 0.037160706 0.0577518 0.0062623937
000320 b4 1f 33 bd 7f c7 8d bd d4 3a c1 bd 3b b0 3c bc
       -0.043731406 -0.069228165 -0.09435049 -0.011516626
000330 1f b8 8a 3d b4 0b d4 bd d5 06 81 3c 20 29 a5 bd
       0.067733996 -0.10353795 0.015750328 -0.080644846
000340 6c ed da 3b 5f 78 ad 3d 60 50 67 bc e7 60 9c bc
       0.006681135 0.084702246 -0.014118284 -0.019089175
000350 1e 49 a5 bd b6 69 92 3d 8e 64 9b bd 5d 2d 82 3d
       -0.080705866 0.07149069 -0.07587539 0.063563086
000360 28 af c5 bd 52 aa aa ba a1 ec ce bb be 7f 7d 3d
       -0.09652549 -0.001302073 -0.0063148295 0.061889403
000370 ad 1b 9e bb 2a 9a 9e bc d7 46 cb bc 55 63 72 3d
       -0.0048250766 -0.01936062 -0.024814053 0.05917676
000380 10 d5 6a 3d d8 10 da bc 73 3f ca 3d 9d 50 60 bd
       0.0573321 -0.02661936 0.09875383 -0.05476438
000390 68 66 b5 bc e0 66 b2 bd c6 af ba 3d cc 26 20 bd
       -0.022143558 -0.08711028 0.091155574 -0.0390995
0003a0 40 1d 89 bd b6 4c 5c 3d ec 77 d1 bc a2 04 b0 3b
       -0.06695032 0.053784095 -0.025569879 0.005371646
0003b0 12 7f 38 3d df 12 d2 3d e9 53 93 3d d0 36 c2 bd
       0.04504306 0.102575056 0.07193739 -0.09483111
0003c0 b6 23 c3 bd 4f 9d c1 bd 59 78 27 bd 88 1a 84 bd
       -0.09528296 -0.09453832 -0.040886257 -0.06450373
0003d0 69 e7 63 bd a7 71 b1 bd 6f 02 a4 bd c0 fe a2 3d
       -0.05564061 -0.086642556 -0.08008277 0.07958746
0003e0 8f 8c 8b 3d b4 55 5f bd 7d 08 42 3d 7f 2a a9 3d
       0.06813919 -0.054525092 0.047371376 0.082600586
0003f0 3d a3 e1 bc 56 6d 92 3d d8 59 e8 bc db f3 43 3d
       -0.027543658 0.071497604 -0.028363153 0.04783998

layers.0.bias f4 [32]
000000 56 90 23 3e 1c 02 39 3e 02 63 da 3c 5a f1 b0 bd
       0.15973029 0.18067211 0.026658539 -0.08639784
000010 e6 46 b9 bc fd 40 2a 3e ed 2e 95 3e 53 06 b6 3d
       -0.022616815 0.16626354 0.29137364 0.08887925
000020 16 3f 8a bc 2a 17 07 3e 51 76 ad 3e ea 26 22 3e
       -0.016875785 0.1319243 0.3387933 0.15835157
000030 bb d2 8e bd 47 7d 93 bc ce c5 cc 3c a3 47 92 3e
       -0.069737874 -0.018004073 0.024996664 0.2857028
000040 81 ba 7e 3d 92 24 9d bd f6 55 11 3e 8a a6 de bc
       0.062189583 -0.07672991 0.14192948 -0.027179021
000050 84 03 28 bd ad f6 16 3e 0c b6 ea bd 1c 2b 87 bd
       -0.041018978 0.14742537 -0.11460504 -0.06600019
000060 82 27 b0 bd 08 71 8d bd 64 94 70 3e 78 43 cd 3c
       -0.086012855 -0.069063246 0.23494107 0.025056586
000070 72 59 32 bd ec d2 3c 3e 73 01 e2 bd cb 24 6b 3d
       -0.043542333 0.18439835 -0.11035433 0.057408135

layers.2.weight f4 [32, 32]
000000 86 1d 68 3d 9f 0c 31 3e a1 28 15 3e a7 d5 ab bd
       0.05666878 0.17289971 0.1456628 -0.0839036
000010 8e 7b 19 be b6 55 10 bc a8 d8 2d 3e d2 27 35 bc
       -0.14988539 -0.008809498 0.16977179 -0.011056857
000020 67 4d e5 3b bc 2e d6 3a ed 69 a2 3d d1 f7 cd 3d
       0.0069977525 0.0016340832 0.0793036 0.10057033
000030 14 ea 25 bd c1 59 12 3d 02 e6 df bd 75 77 0c 3e
       -0.040506437 0.035730127 -0.109325424 0.13717444
000040 cd 19 4c 3d 19 5b f4 3d 5e 30 89 3d ef 14 dc bd
       0.049829293 0.11931438 0.066986784 -0.1074618
000050 56 59 9f 3d 05 1c de ba 49 a4 24 3c 3e a2 a5 3c
       0.07780711 -0.0016945606 0.010048934 0.020218965
000060 c4 3f 05 3e 3c 17 b5 bc 24 96 8e 3d c1 20 e6 3d
       0.13012606 -0.022105806 0.06962231 0.11236716
000070 49 cd 2c be fb 70 73 3d 6d 45 cf bc be c1 00 bd
       -0.16875185 0.05943392 -0.02530166 -0.031434767
000080 e8 ab 83 be fb e4 27 be 9e 66 aa bd eb 11 7b bd
       -0.25717092 -0.16395943 -0.08320354 -0.061296385
000090 4f 15 3b 3e 43 55 05 3e 16 f1 5b be e4 74 f1 3d
       0.18269847 0.13020806 -0.21478686 0.11789873
0000a0 bc 58 87 bc c5 91 e9 3d 8b a5 12 3e dc c7 0d be
       -0.016521804 0.114047565 0.14320962 -0.13845772
0000b0 22 16 43 bd 57 2b d1 bc be 43 3b bc ba b0 ab 3d
       -0.04762853 -0.025533361 -0.011429725 0.08383317
0000c0 a5 64 09 be 67 bf 20 3d ff 2e 7a bd 2a 1f 0d be
       -0.13417299 0.039245035 -0.061079975 -0.1378142
0000d0 04 fa 84 bc b7 5a a7 3c b4 6a e1 3d 08 ea 10 3e
       -0.016232498 0.020428998 0.1100668 0.14151776
0000e0 20 e7 a3 bc 04 79 20 be dc a8 8a 3e 25 0c ae bd
       -0.02000767 -0.15671164 0.27081954 -0.0849841
0000f0 fa 04 c3 3d 08 2b 42 be 63 1c 26 3e a8 d3 54 be
       0.095224336 -0.18961728 0.16221766 -0.20783865
000100 aa a8 67 3e 68 ba 36 3e cb 46 7e 3d 76 e2 0c 3e
       0.22622934 0.17844546 0.062079232 0.13758263
000110 36 93 bd bd 7c 0d e5 3d 8a d6 89 3e 0f b5 0f be
       -0.09256594 0.111842126 0.26921493 -0.14033912
000120 93 b0 34 bd b0 39 b1 bd 03 87 9e be 3f e7 7b 3e
       -0.044113707 -0.08653581 -0.3096238 0.24599932
000130 92 ef 2e be 45 b7 13 bd 4a bc 04 3e 17 d3 8c be
       -0.17083576 -0.03606345 0.12962452 -0.275048
000140 9a 69 fb bd 7a 8a ab 3d a0 0e 89 3e 3b ba a6 bd
       -0.12276001 0.08376022 0.2676897 -0.081409894
000150 2b 8c 9a bd 4d 3f 01 3e bc f7 29 be e7 14 0d be
       -0.07546266 0.12621804 -0.1659841 -0.13777505
000160 ba 0c 87 bd dc 0c e5 bd ee ad b2 bd bf c7 1d be
       -0.06594224 -0.11184093 -0.08724581 -0.15408228
000170 05 98 08 bd 3d 62 6b 3e c2 61 17 3d 53 9a 40 bd
       -0.033348102 0.22986694 0.036958463 -0.047022175
000180 05 26 9d 3d c2 1e 08 be 84 06 0f be da c5 9e bd
       0.07673267 -0.13292983 -0.1396733 -0.07752581
000190 d8 85 e9 3d 2d f2 b2 ba 2a ac 27 be ae 21 e7 3d
       0.11402482 -0.0013652496 -0.16374269 0.11285721
0001a0 40 79 1c be d0 1a ef bd 06 e8 82 3d cb 26 21 be
       -0.15280628 -0.11675036 0.06391911 -0.15737455
0001b0 b3 ec 29 be 64 13 cb bd d5 2a 25 3e 9f f4 79 bd
       -0.165942 -0.09915808 0.1612962 -0.061024304
0001c0 a5 88 3b 3c 83 0d 14 3d f1 ec e8 bc d7 95 d6 bd
       0.011446153 0.0361457 -0.028433295 -0.104777984
0001d0 e8 c5 ec bc 15 0f a9 bd 5a 94 37 be 15 b8 66 bd
       -0.028902963 -0.0825483 -0.17927685 -0.056327898
0001e0 5a 7b 0f 3d 35 13 83 3d 99 33 04 be aa 27 0c bd
       0.035029747 0.06400148 -0.12910308 -0.034217514
0001f0 a9 5b 2d be 36 d2 9e 3d d3 45 d2 3d 5d bc 0d 3d
       -0.16929497 0.07754938 0.10267224 0.034603465
000200 55 65 2e be 1c c7 a8 bd 6c 24 4a 3e f9 09 29 be
       -0.17030843 -0.08241102 0.19740456 -0.1650771
000210 29 fb 23 3e a5 9f b7 3d b9 ba a0 be 05 c7 4a 3e
       0.16013779 0.08965997 -0.31392458 0.19802482
000220 5c e6 a2 bd c3 a0 df 3d 80 47 c9 3e 0e 19 6f be
       -0.07954094 0.10919335 0.39312363 -0.23349401
000230 61 07 0d be da e9 11 3e 8d 0e b4 3d 4d 7f b2 3e
       -0.13772346 0.14249364 0.08791838 0.34862748
000240 7b 3e 8d bd 7d 7f 0f be 24 42 62 be 4a d9 39 3e
       -0.06896683 -0.14013477 -0.22095543 0.18149295
000250 89 67 20 be 48 1f d9 3d 8c 7b 72 3d a2 fb c6 bd
       -0.15664496 0.106016695 0.059199855 -0.09715964
000260 a8 7d 16 be 52 2f 70 bd 51 a9 62 3e d5 a7 0c 3e
       -0.14696372 -0.05863888 0.22134902 0.13735898
000270 f5 80 91 bd d3 a4 1f be 95 95 21 3e 66 5c 09 be
       -0.07104675 -0.15590219 0.15779717 -0.13414153
000280 12 5a 8c 3e c4 f4 37 3e 89 3e ac bc ac 4a 05 3e
       0.27412468 0.17964464 -0.021025913 0.13016766
000290 22 9d e4 3d 74 2a b5 bd fd 1a a4 3e 85 09 c0 bd
       0.11162783 -0.08845988 0.3205184 -0.09376816
0002a0 ea ff 01 3e 80 f3 33 3d ae c4 25 be 79 38 84 3e
       0.1269528 0.04393339 -0.16188309 0.25824335
0002b0 9d 89 ac b9 80 4d 89 bd f7 63 67 bd 6d 4a 06 be
       -0.00032908926 -0.06704235 -0.05649182 -0.13114329
0002c0 bc e8 a9 3d ec ba 26 3d 28 f8 93 3e 5e cd 00 bd
       0.08296344 0.040705606 0.28900266 -0.031445853
0002d0 48 a6 5d 3d be 26 2c 3e 1c 80 4b be 05 ca 95 bd
       0.054113656 0.16811654 -0.19873089 -0.07313923
0002e0 1d a5 3c 3d 53 c3 ae 3d 47 c7 63 be 35 cf bb bd
       0.0460559 0.08533349 -0.22243987 -0.09170381
0002f0 f0 46 2d be ca 23 fe 3d 1d 11 93 3c e8 62 01 bc
       -0.16921592 0.1240917 0.017952496 -0.007897116
000300 6e 1a 3d 3e 2a 74 51 3d b3 b6 12 3d f0 23 1c be
       0.18467113 0.051136173 0.035818767 -0.15248084
000310 00 07 07 bd c2 3a 13 3e 92 5a 0c be 25 c9 95 3d
       -0.03296566 0.14377883 -0.13706425 0.07313756
000320 8d cb 25 3e 35 2b 20 be 00 79 43 be 40 bf f3 3d
       0.1619093 -0.15641482 -0.19089127 0.119017124
000330 98 9e 8e 3c 8f 5e 91 bc cc 9a 93 bc 0e 89 ec 3d
       0.017409608 -0.017745284 -0.018018149 0.115495786
000340 95 f3 08 3e 04 a9 c4 bd a5 a1 fc bd b9 e5 98 bd
       0.13374169 -0.0960255 -0.12335519 -0.07465691
000350 86 d5 7f 3c cb 2c 07 3e c4 a2 b4 bd b0 bd f9 bd
       0.015614873 0.13200681 -0.088201076 -0.12194383
000360 b8 6d 71 bd 3d b6 8b bd f3 66 fd 3d 6a 2e 20 3d
       -0.058942527 -0.068218686 0.12373152 0.039106764
000370 78 2b 53 bd bb 85 2d be 8d cb be bc de 9b 35 3e
       -0.051555127 -0.16945545 -0.02329042 0.1773524
000380 68 27 b8 3d 1a 8f e0 3d a7 b2 b9 bd c7 ef 70 3d
       0.08991891 0.109647945 -0.09067278 0.05882242
000390 36 f8 f7 3c 01 39 b3 3d 5c 1d 81 3e bd 36 ba 3c
       0.030269723 0.08751107 0.25217712 0.02273118
0003a0 a6 fa 07 3d f8 ad 34 bc f2 a9 24 be 11 39 2b bc
       0.03319802 -0.0110278055 -0.16080454 -0.010450617
0003b0 dc a1 4b 3c 01 3b 1f be a8 dc 33 bd 42 2b 0b be
       0.012428727 -0.15549852 -0.043911606 -0.1359072
0003c0 99 16 41 3d e7 c5 3c bc 6c 3d 04 3e 1b b9 67 3c
       0.04714069 -0.011521793 0.12914056 0.014143254
0003d0 25 df cc 3d ec 32 8e bd b9 35 1f 3e 94 30 0d be
       0.10003499 -0.06943306 0.15547837 -0.13788062
0003e0 dd 85 a9 bc 00 95 a7 3d d4 f1 eb bd 74 f5 11 be
       -0.020693714 0.08182716 -0.115207344 -0.14253789
0003f0 46 a4 a3 3d 8d 67 52 3e 20 c1 33 be 5b 74 0f 3e
       0.07990317 0.20547314 -0.1755414 0.1400923

layers.2.bias f4 [32]
000000 0a ad e1 3d cd 15 b2 3e 3a f7 60 3e b0 d6 3c 3d
       0.11019333 0.34782258 0.2196931 0.04610318
000010 2b 7f a7 3e a2 8d 2e 3e e8 0c 0c 3e 0c d1 22 3e
       0.3271421 0.17046216 0.13676798 0.15900058
000020 8f b5 4d 3d f2 1f 1e 3e 9d 06 97 3d 55 95 be 3d
       0.050221976 0.15441874 0.07374308 0.093058266
000030 63 ec c5 bc 82 c9 ee bd f5 2a ad 3e 2d ec 5e 3e
       -0.02416057 -0.11659528 0.33821836 0.21769781
000040 ae 6b 1e be 05 ca 93 3e 9e 86 15 be 2c 8d 7c 3d
       -0.15470764 0.28865066 -0.14602134 0.06165807
000050 50 56 21 3e 63 d7 17 3e 43 ef 97 3d f6 e3 c4 3e
       0.15755582 0.14828257 0.074186824 0.3845517
000060 5a 9a f3 3d 5e 64 0a be 47 9b 0e 3e 7f 01 4f bd
       0.118946746 -0.1351485 0.13926421 -0.050538536
000070 61 d9 9f bd 07 e2 0b be e5 6d 29 3e 67 14 f6 bd
       -0.078051336 -0.13660441 0.16545828 -0.1201561

layers.4.weight f4 [1, 32]
000000 c3 04 8d 3d 63 7a 1c bf d3 00 2c 3f f9 0e 2c 3d
       0.06885674 -0.6112425 0.6718876 0.042006467
000010 20 8e 54 bf 45 17 32 3f 2d 3a 1c 3d 9e db d5 3e
       -0.83029366 0.69566756 0.03814142 0.41769117
000020 61 62 f3 3c 93 7a 1f 3f 55 1c 3c 3e 19 01 39 3e
       0.029709997 0.6229641 0.18370183 0.18066825
000030 b7 f2 38 bc 48 d8 4c bc 26 ca 31 bf 59 2b e5 be
       -0.0112883365 -0.012502737 -0.6944908 -0.44759634
000040 0c 7d a3 bd 21 44 43 3f 45 e0 28 3e f9 eb 3e be
       -0.07982835 0.7627583 0.16491802 -0.18644704
000050 8f a6 b5 3e f2 58 e8 be f9 a0 46 3e d9 9a 71 bf
       0.35478637 -0.4538036 0.19397344 -0.94376904
000060 de f7 09 3f fb c5 dc bd df b9 d3 bd 17 51 0b 3d
       0.5389384 -0.10779949 -0.103381865 0.03401288
000070 47 f1 1a be 69 73 ea 3d 81 23 0f 3b 46 0b 9f 3b
       -0.15131103 0.11447794 0.002184123 0.004853639
