platoon_gym/ctrl/models/vel_dyn_lyap_pf_4_8_8_1_leaky_relu_guided.pt (torch, 2818 bytes, 3 tensors)

layers.0.weight f4 [8, 4]
00000000: c199 11bf 0b0a d43e 41a5 4e3d 03ab 60bd
00000010: c376 aa3e 8b84 803c f4a3 c7be 762d 80be
00000020: b5f4 763e 25bb 22bf d521 0bbe 6602 8f3e
00000030: 8309 f5be cbeb 14bf 65ea afbd d866 4dbc
00000040: 5237 a73e ad13 123f 6cfe d2bc d81e 12bd
00000050: 7524 ea3e dd15 c4be 53d7 7b3e 5438 04be
00000060: 026a 78bc 1090 8f3e 59f9 bc3e 79ea d43e
00000070: d621 2f3f 2270 e4bd b4d3 17be 87c7 95bd
-0.56875235 0.41413912 0.050450567 -0.05485059 0.33293733 0.015688201 -0.38992274 -0.25034684
0.24116786 -0.6356681 -0.13587125 0.27931517 -0.4785882 -0.5817229 -0.08589629 -0.012536727
0.32659394 0.5706127 -0.025756083 -0.035673946 0.4573094 -0.3829793 0.24593858 -0.12912112
-0.015161993 0.28039598 0.36908987 0.41585138 0.68411005 -0.111542 -0.14826852 -0.073134474

layers.2.weight f4 [8, 8]
00000000: 82a0 9f3e 7e0a 773e 5fa7 803e a38b 483e
00000010: 94ba 823e 5213 8c3a 7794 cfbd 42c7 093e
00000020: e0e0 cebd 8190 f8bd f538 08bd 036d 833e
00000030: 04a2 073f c0bf 8b3e 38cb 9f3c 7e0a 603d
00000040: 73e6 8abd 3bf5 6b3e 4970 13be 6d3f 56bd
00000050: 41da b33e bef8 22bd d7dc 603e 108d f33d
00000060: d912 74be 096a ed3d 1480 5b3e 0461 453e
00000070: ba4d bc3d 473a 28bc 543d 81bd 63fe 523e
00000080: d8eb efbe 2c32 08bd 382d c43d 0811 6ebe
00000090: fcd5 fabd 34e0 a4be ea4d 8cbe 0e5f 80be
000000a0: 2d6c 96be 4e2c 1d3d 0760 88bc 6b45 a53e
000000b0: e2cd 363e 25a9 f7bc 2723 fbbe 45ca 67bd
000000c0: 25f3 843e 9ac7 f73d a643 0e3e 1697 683e
000000d0: 0760 bfbd f38c db3d be29 733e 63d2 ff3d
000000e0: c247 1b3e e6b1 ffbd 1b0e a13e a4a4 9e3e
000000f0: cc48 653e e327 08bd 719a 243b c834 aebe
0.31177145 0.24125096 0.25127694 0.19584517 0.25532973 0.001068691 -0.10135739 0.13454917
-0.10101485 -0.12136937 -0.033257443 0.25669107 0.5298159 0.2729473 0.019506082 0.054697506
-0.06782236 0.23042767 -0.14398302 -0.05230658 0.35127452 -0.039788 0.21959244 0.1189214
-0.23835315 0.1159249 0.21435577 0.1927529 0.09194513 -0.010267801 -0.063105255 0.20604853
-0.46859622 -0.033250973 0.09578937 -0.23248684 -0.122478455 -0.32202303 -0.27403194 -0.2507252
-0.29379407 0.03837233 -0.016647352 0.32279524 0.17851976 -0.030232022 -0.49050257 -0.056589384
0.25966755 0.12098618 0.13892993 0.22713885 -0.09344488 0.10720243 0.23746392 0.124913
0.15164092 -0.12485103 0.31456074 0.30984986 0.22391051 -0.033241164 0.0025116468 -0.34024644

layers.4.weight f4 [1, 8]
00000000: 1561 0c3e 025c 083e 2fc8 503e 3ff3 9ebb
00000010: 022d 51be f10d 8e3d c802 1b3e 588d 0c3e
0.13708909 0.13316348 0.20388864 -0.0048507745 -0.20427325 0.06936253 0.1513778 0.13725793
