platoon_gym/ctrl/models/vel_dyn_lyap_pf_200_32_32_1_leaky_relu_guided.pt (torch, 32222 bytes, 3 tensors)

layers.0.weight f4 [32, 200]
-0.15270513 -0.07250352 0.18970986 -0.06856393 0.20089562 -0.15049331 -0.023704762 0.19613412
-0.19699982 0.054926857 0.1464775 0.1572406 -0.12452978 0.20271698 -0.04745272 0.18396515
-0.11732632 0.22173208 0.15532078 0.08142157 0.038649898 -0.11483116 0.020398224 -0.057318084
0.11852093 0.027720582 -0.100500986 -0.096613444 0.04231821 0.0435277 0.07767759 -0.00327639
-0.07996395 0.0054726815 -0.115002386 -0.011769033 0.12744647 0.038777635 0.060857955 -0.054840144
-0.07252444 -0.047081918 -0.08890635 -0.016111715 -0.06908384 -0.027416496 -0.03132283 0.020567274
-0.053269736 -0.12022351 -0.028988091 -0.008550247 0.035195272 0.115078054 -0.054166675 0.06258094
0.069986664 -0.10927024 0.124023095 -0.10517208 -0.10704379 0.06798502 -0.09178457 0.048692603
0.098085634 -0.10395154 -0.063929915 0.09272322 0.0018619322 0.06560685 -0.09984179 -0.09325315
0.03523728 0.036054313 -0.02943603 0.056311093 -0.09193478 -0.10152536 -0.10167353 0.062471952
-0.017367605 -0.03638919 0.07835734 -0.047605697 -0.025629656 -0.036344826 -0.10037647 0.08462467
-0.06016717 0.00024596462 -0.10103231 0.049540076 0.06907779 -0.06599337 -0.09034427 0.057284497
-0.036677174 0.03598707 -0.11048341 -0.053790905 0.075851955 0.019500023 -0.04932821 -0.06479599
-0.029132161 -0.05725761 0.05808321 0.035206623 0.03459883 0.05882839 -0.028019544 -0.032819383
-0.10082414 -0.06144038 0.054943103 -0.026173543 0.058171473 -0.055863295 -0.035474963 0.036656033
-0.08151116 -0.05651061 -0.049066514 -0.07516789 -0.014025002 0.028044159 0.020051884 0.012908803
0.06683259 0.021959687 -0.062117733 0.04331542 0.06966364 -0.050170418 -0.056975566 0.062397454
0.009981789 0.085295044 0.065409 0.07903107 -0.059155572 -0.04613317 -0.0038557183 -0.011059353
-0.07847871 -0.040394742 -0.02560672 -0.06544161 0.06275863 0.054395854 0.023175165 0.061798725
0.008921113 0.055045675 -0.0527712 0.046909083 0.059199125 0.0042702896 0.0023529145 0.015365705
0.053693227 -0.024566023 0.012670377 -0.075570896 0.009527471 -0.026170263 -0.03693558 0.0017715588
0.0045777145 -0.015579776 -0.074513935 0.013437913 0.018756568 -0.030746441 0.002778567 -0.011876481
0.032934252 0.043328334 -0.0027016466 0.007301745 0.0095247915 -0.040381193 -0.010910516 0.040244758
-0.05497229 0.010120669 -0.06832325 0.032897633 -0.021380236 -0.050296627 0.03607022 -0.02193615
-0.069408715 0.07007832 0.038387112 0.06374739 0.0035332635 0.020503316 0.04079232 -0.0001614872
-0.08234607 0.10975238 -0.00082024845 0.16610691 0.09739172 0.0054639536 0.055234917 0.01590882
0.067117855 -0.0044290125 0.20942822 0.2129568 0.16625914 0.03331803 -0.01653152 -0.04123873
-0.18754737 0.096765734 -0.050427064 0.07829662 0.1351359 0.06630022 0.012130701 -0.13119116
-0.02769807 0.034932397 -0.1492128 -0.02075897 0.0198299 0.120512635 -0.1406028 0.0706131
-0.073436506 0.14501156 -0.104935855 -0.04540662 0.034960486 0.13219054 -0.1271585 -0.003281433
0.008748236 0.08046242 0.0728872 -0.04747629 -0.04668224 -0.065999344 0.015661225 -0.061312683
-0.14386305 -0.11352719 -0.12894025 -0.026209459 -0.10972726 0.00035038526 -0.08833275 -0.08427368
00000000: bc5e 1cbe ba7c 94bd 4d43 423e 3f6b 8cbd
00000010: 95b7 4d3e eb1a 1abe 7d30 c2bc 62d7 483e
00000020: 52ba 49be fcfa 603d 33fe 153e ae03 213e
00000030: 7809 ffbd 0a95 4f3e c95d 42bd 5c61 3c3e
00000040: c848 f0bd bc0d 633e 690c 1f3e 5ac0 a63d
00000050: 5b4f 1e3d 992c ebbd 2d1a a73c 5ec6 6abd
00000060: 1abb f23d 4616 e33c 76d3 cdbd 45dd c5bd
00000070: dc55 2d3d 1a4a 323d 6e15 9f3d b4b8 56bb
00000080: 24c4 a3bd 2e54 b33b 5f86 ebbd e7d2 40bc
00000090: 5481 023e 4cd5 1e3d 3146 793d 0fa0 60bd
000000a0: b287 94bd f8d8 40bd 8814 b6bd b7fc 83bc
000000b0: d47b 8dbd 8f98 e0bc 5e4c 00bd b37c a83c
000000c0: 5e31 5abd be37 f6bd 6f78 edbc 5616 0cbc
000000d0: eb28 103d 0bae eb3d e0dd 5dbd 702a 803d
000000e0: 2b55 8f3d 13c9 dfbd d2ff fd3d 7664 d7bd
000000f0: c639 dbbd bb3b 8b3d 8cf9 bbbd e571 473d
00000100: 1fe1 c83d 8ce4 d4bd b0ed 82bd ace5 bd3d
00000110: 140c f43a e25c 863d da79 ccbd 82fb bebd
00000120: f754 103d b0ad 133d d423 f1bc 76a6 663d
00000130: 4d48 bcbd 87ec cfbd 363a d0bd 97e2 7f3d
00000140: 8246 8ebc d50c 15bd d079 a03d 31fe 42bd
00000150: 49f5 d1bc 50de 14bd 2e92 cdbd b34f ad3d
00000160: da71 76bd d0f4 8039 07ea cebd 89ea 4a3d
00000170: a878 8d3d 8827 87bd 6b06 b9bd 26a3 6a3d
00000180: ce3a 16bd 2e67 133d 2045 e2bd da53 5cbd
00000190: 4558 9b3d 83be 9f3c 610c 4abd c3b3 84bd
000001a0: 92a6 eebc f586 6abd a9e8 6d3d d234 103d
000001b0: 81b7 0d3d 0af6 703d 3e89 e5bc 9e6d 06bd
000001c0: e37c cebd e8a8 7bbd 050c 613d e669 d6bc
000001d0: 3645 6e3d e9d0 64bd 324e 11bd a324 163d
000001e0: 53ef a6bd ab77 67bd f8f9 48bd 9ff1 99bd
000001f0: 1fc9 65bc ddbc e53c d943 a43c 727f 533c
00000200: 86df 883d cde4 b33c 2a6f 7ebd 836b 313d
00000210: cfab 8e3d 7f7f 4dbd 365f 69bd 7994 7f3d
00000220: a88a 233c 2baf ae3d 27f5 853d 0bdb a13d
00000230: 1d4d 72bd 23f6 3cbd 38b0 7cbb 4a32 35bc
00000240: 72b9 a0bd f574 25bd 2fc5 d1bc 4006 86bd
00000250: 9987 803d 30ce 5e3d d8d9 bd3c a920 7d3d
00000260: dc29 123c 9377 613d 9d26 58bd bd23 403d
00000270: c87a 723d c9ed 8b3b 5b33 1a3b 70c0 7b3c
00000280: 6eed 5b3d af3e c9bc 6a97 4f3c eac4 9abd
00000290: 1c19 1c3c 0563 d6bc c349 17bd a633 e83a
000002a0: a700 963b 5142 7fbc c39a 98bd b12a 5c3c
000002b0: 60a7 993c f6df fbbc 9e18 363b 9295 42bc
000002c0: 11e6 063d 0d79 313d 1c0e 31bb 7a43 ef3b
000002d0: df0d 1c3c c066 25bd 05c2 32bc b0d7 243d
000002e0: a02a 61bd 2ad1 253c 0fed 8bbd abbf 063d
000002f0: 9b25 afbc d603 4ebd 5ebe 133d 71b3 b3bc
00000300: 2826 8ebd 3985 8f3d ce3b 1d3d fe8d 823d
00000310: 538e 673b 92f6 a73c d915 273d e454 29b9
00000320: 0ea5 a8bd dbc5 e03d f105 57ba ee17 2a3e
00000330: 4f75 c73d f70a b33b 023e 623d 3753 823c
00000340: 1675 893d 4021 91bb 5a74 563e 5911 5a3e
00000350: d63f 2a3e 7d78 083d 1c6d 87bc f1e9 28bd
00000360: 6b0c 40be 1d2d c63d 9c8c 4ebd fa59 a03d
00000370: 1161 0a3e 69c8 873d d9bf 463c fa56 06be
00000380: 10e7 e2bc 4615 0f3d 3ecb 18be b70e aabc
00000390: 5072 a23c 54cf f63d 2efa 0fbe 9a9d 903d
000003a0: e165 96bd e97d 143e 9ce8 d6bd 4bfc 39bd
000003b0: ba32 0f3d f55c 073e d635 02be 4f0d 57bb
000003c0: c354 0f3c 7bc9 a43d e245 953d 8076 42bd
000003d0: e035 3fbd aa2a 87bd f84b 803c 0223 7bbd
000003e0: d650 13be f280 e8bd ea08 04be 38b5 d6bc
000003f0: b0b8 e0bd eab3 b739 cde7 b4bd ae97 acbd

layers.2.weight f4 [32, 32]
0.08842386 -0.096186325 0.01666106 0.12199463 -0.14223745 0.14097974 -0.14037538 0.04324758
-0.060519453 -0.039627183 0.08455585 -0.16913432 0.0877985 -0.107112296 0.09038866 0.025259253
-0.10284482 0.07173078 -0.06982109 -0.12852107 0.046144586 0.10452105 0.109327115 -0.0055237697
0.075578064 0.14297779 -0.14479268 -0.08400804 -0.05489148 -0.011885288 -0.17769733 0.051339813
-0.17284247 -0.06380276 -0.040565845 -0.04093345 0.1695767 0.121935524 0.05725044 0.1564449
0.17647651 0.17906429 0.17174241 0.01983493 0.018867195 -0.03934661 0.17991972 -0.11011493
-0.116667554 0.17889704 -0.14069359 -0.064166695 0.0602058 0.10296572 -0.11962334 0.14471619
-0.111708194 0.001265107 0.09898975 0.18588203 0.058948644 0.17484342 -0.009799234 0.047733113
0.10451736 -0.10563081 -0.12922035 -0.03287856 0.017248763 -0.019045882 0.04956241 -0.09131414
-0.11112479 -0.12318645 0.025498245 0.1353452 0.075424105 0.10146861 0.13609198 -0.15070528
-0.13871504 -0.10850999 -0.17109033 -0.18864262 0.14814566 0.1364399 0.12748908 0.016351653
-0.1237802 0.06239624 -0.1781826 0.11048342 0.122832 -0.028048428 -0.11624442 -0.16819818
0.15763108 0.16708623 -0.04318551 -0.083945535 -0.037715185 -0.1677684 0.103607446 -0.14038509
0.030889554 0.029720508 0.0014629207 -0.058778208 -0.108924426 -0.0811573 0.15515779 -0.013628709
0.12703481 0.017676298 0.07369416 0.068601035 -0.124749064 -0.0777102 -0.1529797 0.02497727
-0.056812927 0.13986622 0.033138134 0.12365056 -0.14297858 0.18944785 -0.053739943 0.018329445
-0.12769654 -0.16864033 0.1511574 -0.06729039 -0.06883099 -0.04844086 -0.04774667 0.107328355
-0.102742575 0.14452046 -0.06741409 -0.10910047 -0.15272997 -0.12012252 0.0050135134 0.14771882
0.17808199 -0.14776145 -0.056600492 -0.11072453 0.09135211 0.14523132 0.070556074 -0.1582603
0.04676069 0.11275428 -0.11205255 0.0039960807 -0.13129432 -0.011912415 0.10387978 0.11918426
0.079702474 -0.16597563 -0.03172395 -0.061084483 -0.096535936 -0.07365069 -0.07746226 -0.086412586
-0.15601015 0.16384672 0.053967044 -0.13223027 0.020839216 -0.007285263 -0.12731704 -0.15070476
0.15995589 0.052470498 -0.14051642 0.12744777 -0.09356581 -0.10926117 0.15463093 0.08874532
-0.01809825 0.08826366 0.014320621 -0.04576048 0.08125951 0.09763872 -0.16899513 0.09902057
0.20086238 0.13208078 0.031560596 0.17288437 0.17872386 0.11416498 -0.08344224 0.17249765
0.15320131 0.1693724 0.16177382 0.14455914 -0.02271643 -0.09864453 0.15917565 0.15311453
0.05833744 0.02559511 0.04530859 0.055527613 -0.10365737 0.18438567 -0.012387973 0.08383043
-0.10340813 0.050295964 0.080161035 -0.12161457 -0.008312874 0.11272787 0.04276523 0.007619162
-0.16460355 -0.14576095 0.014170982 -0.06083841 0.009348999 0.08659154 0.0062139174 -0.14471304
0.0078667095 -0.012754074 0.18069828 0.17464638 -0.17934632 -0.08893207 -0.08674987 -0.011574597
0.08024331 0.15095066 0.13095799 0.16758998 -0.07334204 0.15758166 0.11898305 0.11286486
0.007764313 0.12943079 -0.118904844 0.056627244 -0.01543103 0.12364641 -0.030020444 -0.1739915
00000000: 9217 b53d 56fd c4bd c67c 883c 52d8 f93d
00000010: b2a6 11be fe5c 103e 90be 0fbe 6024 313d
00000020: 3fe3 77bd 1d50 22bd 9e2b ad3d 8c31 2dbe
00000030: b3cf b33d b15d dbbd b11d b93d 7eec ce3c
00000040: 4ea0 d2bd 96e7 923d 5cfe 8ebd 079b 03be
00000050: 1b02 3d3d 220f d63d e5e6 df3d bd00 b5bb
00000060: acc8 9a3d c568 123e 8844 14be 680c acbd
00000070: e3d5 60bd 83ba 42bc 4af6 35be b249 523d
00000080: 9efd 30be 05ab 82bd 5f28 26bd d5a9 27bd
00000090: 84a5 2d3e 55b9 f93d 707f 6a3d 1833 203e
000000a0: 42b6 343e a15c 373e 3edd 2f3e dd7c a23c
000000b0: 608f 9a3c e929 21bd e03c 383e f083 e1bd
000000c0: 66ef eebd c930 373e fb11 10be d469 83bd
000000d0: 5b9a 763d b1df d23d 15fd f4bd 7b30 143e
000000e0: 44c7 e4bd f2d1 a53a 23bb ca3d dc57 3e3e
000000f0: 2274 713d 270a 333e f78c 20bc cc83 433d
00000100: 330d d63d f754 d8bd 5752 04be abab 06bd
00000110: 474d 8d3c 1c06 9cbc f401 4b3d e802 bbbd
00000120: 6595 e3bd 2d49 fcbd b2e1 d03c ef97 0a3e
00000130: f477 9a3d c6ce cf3d b25b 0b3e 7c52 1abe
00000140: 510b 0ebe 7c3a debd 4e32 2fbe 882b 41be
00000150: 7fb3 173e e7b6 0b3e 7f8c 023e e7f3 853c
00000160: 7980 fdbd 3393 7f3d 8075 36be 2245 e23d
00000170: 588f fb3d d1c5 e5bc 8e11 eebd 253c 2cbe
00000180: 0b6a 213e a718 2b3e 4ae3 30bd a3eb abbd
00000190: 3d7b 1abd 7bcb 2bbe 2430 d43d 1cc1 0fbe
000001a0: 170c fd3c 6c78 f33c 79bf bf3a 6bc1 70bd
000001b0: c513 dfbd cc35 a6bd afe1 1e3e f34a 5fbc
000001c0: 6a15 023e e2cd 903c f7ec 963d b37e 8c3d
000001d0: 707c ffbd 8626 9fbd b6a6 1cbe 229d cc3c
000001e0: acb4 68bd 1739 0f3e dabb 073d 813c fd3d
000001f0: fa68 12be 9efe 413e 6a1e 5cbd a227 963c
00000200: e2c2 02be 0db0 2cbe 01c9 1a3e 8bcf 89bd
00000210: 43f7 8cbd ec69 46bd 0392 43bd f8ce db3d
00000220: b36a d2bd 2cfd 133e 6610 8abd 1170 dfbd
00000230: 3f65 1cbe cc02 f6bd 6648 a43b 9a43 173e
00000240: 205b 363e c74e 17be ebd5 67bd 8bc3 e2bd
00000250: d116 bb3d 85b7 143e b47f 903d fd0e 22be
00000260: 2388 3f3d b7eb e63d cf7b e5bd 8ef1 823b
00000270: 0572 06be 4a2c 43bc ecbe d43d e116 f43d
00000280: 0d3b a33d 84f5 29be f9f0 01bd b933 7abd
00000290: a2b4 c5bd 2cd6 96bd 89a4 9ebd 15f9 b0bd
000002a0: 20c1 1fbe 6fc7 273e 8c0c 5d3d 5f67 07be
000002b0: 01b7 aa3c 37b9 eebb 665f 02be 5952 1abe
000002c0: 7acb 233e 4eeb 563d 89e3 0fbe ab81 023e
000002d0: 6e9f bfbd 52c4 dfbd 9257 1e3e 1bc0 b53d
000002e0: c842 94bc 94c3 b43d 0aa1 6a3c 576f 3bbd
000002f0: 636b a63d cff6 c73d 0f0d 2dbe 4ccb ca3d
00000300: deae 4d3e 2f40 073e af45 013d 9a08 313e
00000310: 6303 373e 54cf e93d c4e3 aabd 39a3 303e
00000320: cee0 1c3e f56f 2d3e 09a8 253e 5007 143e
00000330: ce17 babc 2506 cabd f1fe 223e 0eca 1c3e
00000340: 3df3 6e3d d6ac d13c 8095 393d ec70 633d
00000350: 514a d4bd 99cf 3c3e edf6 4abc 4aaf ab3d
00000360: a4c7 d3bd 2403 4e3d 782b a43d 0f11 f9bd
00000370: b832 08bc dfdd e63d 982a 2f3d 2aaa f93b
00000380: d58d 28be 5c42 15be 682d 683c b231 79bd
00000390: 8b2c 193c e856 b13d 1e9e cb3b a82f 14be
000003a0: 5fe3 003c 77f6 50bc f808 393e 80d6 323e
000003b0: 90a6 37be 0422 b6bd eaa9 b1bd 61a3 3dbc
000003c0: 9b56 a43d cf92 1a3e da19 063e b59c 2b3e
000003d0: 5a34 96bd 165d 213e 63ad f33d b125 e73d
000003e0: c76b fe3b 8189 043e 6284 f3bd f8f1 673d
000003f0: 6ed2 7cbc 543a fd3d 6fed f5bc d42a 32be

layers.4.weight f4 [1, 32]
0.0669627 0.30822676 -0.13211627 0.1286918 0.19677424 -0.09211623 0.35328212 0.14733861
0.120152056 -0.02041744 0.0051225973 0.12313258 0.015709449 0.13998958 0.07670927 0.264358
-0.067252934 0.2398081 -0.010396239 0.2996379 0.01166868 -0.019598972 0.034732807 0.034539677
0.24934505 0.28852308 0.21107535 -0.13529722 0.19700144 0.35852304 -0.046982944 -0.10390924
00000000: bd23 893d e6cf 9d3e 7d49 07be c9c7 033e
00000010: 307f 493e 6fa7 bcbd 65e1 b43e efdf 163e
00000020: 4812 f63d 7a42 a7bc 76db a73b ef2c fc3d
00000030: 1ab1 803c 6e59 0f3e c019 9d3d ef59 873e
00000040: e8bb 89bd 4190 753e fd54 2abc 246a 993e
00000050: fe2d 3f3c 068e a0bc fd43 0e3d 7a79 0d3d
00000060: 4f54 7f3e 4cb9 933e 2324 583e 5b8b 0abe
00000070: bfba 493e 5590 b73e 3071 40bd 5ece d4bd
