platoon_gym/ctrl/models/vel_dyn_ctrl_pf_2_8_8_1_leaky_relu_guided.pt (torch, 4726 bytes, 3 tensors)

layers.0.weight f4 [8, 2]
00000000: 27b5 8bbf 549c 37bf 2599 00bf c490 02be
00000010: f13a 4c3f 34df 2a3e 9507 c9be 017f 89bf
00000020: f6c2 c9bd 1ee7 673f a3e6 de3e 4032 73bf
00000030: e8c3 41bf a778 3abe 0634 913e ebb7 3c3f
-1.0914658 -0.7172291 -0.5023368 -0.12750536 0.7977744 0.16686708 -0.39263597 -1.0741884
-0.09851639 0.9058703 0.43535337 -0.9499855 -0.75689554 -0.18210088 0.28360003 0.73718137

layers.2.weight f4 [8, 8]
00000000: bd2b e23e c2a2 93bd afd9 63bf bb8d 2c3f
00000010: 748a c93e 827b c53d 4bf8 ab3d 39e6 cbbe
00000020: 0d9a 2e3e a5d1 ba3e f4d8 2f3f f586 51be
00000030: 8b61 ff3e e3bf 5b3e a1a2 4e3f d8ca ce3e
00000040: d657 2dbe b66e c8be f13e 5dbe 23ff fbbe
00000050: 833d cd3e c971 cc3c cdc7 6fbf c9ea 353f
00000060: 6c0f 093f e75b 533d 8966 63be 1304 ea3e
00000070: eb15 853e 3b69 703f e3c8 8a3e 469e edbd
00000080: 274b 6fbf 873c d7be 70a3 c53e d99a b83d
00000090: 1689 c83d 12e7 e13e 2d6d cabf 6394 3b3f
000000a0: 80b1 9ebe bd7c babe c047 913e ed23 18be
000000b0: 41f0 953e 6977 b13e 586b 78bf c741 3f3e
000000c0: b9e6 0c3f 18e9 843d e73a 45be 00ba ea3e
000000d0: 7baa ce3e 9b84 2c3f 92c1 64bd 363c b2be
000000e0: 2b79 fb3d 7e5f 91bf 74ae 9fbe de52 d4be
000000f0: 7445 c43e f8a5 4ebe 6a5f ccbf 5fa2 1e3f
0.44173995 -0.07208778 -0.89004034 0.67403764 0.39363444 0.09642698 0.083969675 -0.39824083
0.17050953 0.3648807 0.6869042 -0.20461638 0.49879107 0.21459918 0.807169 0.40389132
-0.16928038 -0.39146966 -0.21606041 -0.4921809 0.40085992 0.0249566 -0.93664247 0.7106138
0.53539157 0.051601317 -0.22207083 0.45706233 0.25993285 0.9391057 0.2710639 -0.11602454
-0.9347405 -0.42038366 0.38601255 0.0901391 0.09791772 0.44121605 -1.5814568 0.73273295
-0.30994797 -0.36423293 0.28375053 -0.14857455 0.29284862 0.34661415 -0.97038794 0.18677436
0.55039555 0.064897716 -0.1926075 0.45845032 0.4036444 0.6738984 -0.055848666 -0.34811562
0.1227897 -1.1357267 -0.31187785 -0.41469473 0.3833424 -0.201805 -1.5966618 0.6196651

layers.4.weight f4 [1, 8]
00000000: f96c 3abf 3ec2 323f 7ca7 013f 122f 26bf
00000010: 4993 3d3f da75 973f 323f 0fbf 3bd2 773f
-0.7282253 0.6982764 0.50646186 -0.64915574 0.74052864 1.183284 -0.55955803 0.9680516
