platoon_gym/ctrl/models/vel_dyn_lyap_pf_2_8_8_1_leaky_relu_guided.pt (torch, 2754 bytes, 3 tensors)

layers.0.weight f4 [8, 2]
000000 bf d3 85 bc 29 e3 cd be cb 02 0c bf ed 1b d5 3b
       -0.01633632 -0.40212372 -0.5469176 0.006503573
000010 eb b2 06 be 63 37 92 bd 8c 8b aa be d6 c8 f8 3e
       -0.1315419 -0.071394704 -0.3330959 0.48590726
000020 0d 04 77 be 95 e9 fb be 32 07 92 3d 0f 9a 02 3f
       -0.24122639 -0.49201646 0.07130279 0.51016325
000030 ca 3c 0a 3f 6c 70 03 3f 97 fb bf 3e d2 9a 0d bf
       0.53999007 0.5134342 0.37496635 -0.5531436

layers.2.weight f4 [8, 8]
000000 42 75 af 3d c4 2e a4 bd 72 bc 88 3e 9b 9e 7a 3e
       0.08567287 -0.08016732 0.26706272 0.24474566
000010 a5 c9 bc 3e ec 28 56 be 00 db a6 3e 41 56 4a be
       0.36872593 -0.20914048 0.3258896 -0.19759466
000020 a6 79 e3 bd bc d8 04 be 78 49 b0 3d 00 69 85 3d
       -0.11107187 -0.12973303 0.08607763 0.06514168
000030 08 3b cb bd 1e ae d8 3d b4 e2 c9 3d 99 f8 ab bd
       -0.09923369 0.10580085 0.09857693 -0.083970256
000040 e6 cc 8e 3e a2 4a b1 be 5f db 66 3e 04 ee 84 bd
       0.278907 -0.34627253 0.22544621 -0.064907104
000050 5c 53 f1 3d 9c ee 9e bd e7 ba e8 3d 29 c9 bf 3e
       0.11783478 -0.07760355 0.11363774 0.3745816
000060 e3 1c f1 bd ac 36 9b bd c9 16 6f be b7 a3 9e bd
       -0.11773088 -0.07578787 -0.23348536 -0.0774607
000070 fd 2b 67 be ee ec a4 bd c1 30 fb bd 95 13 a6 be
       -0.22575374 -0.08053003 -0.122651584 -0.32436815
000080 bd 64 12 3e 00 99 36 be 88 85 8c be c7 26 1b 3e
       0.14296241 -0.17831802 -0.27445626 0.15151511
000090 d6 e8 84 3e a7 7e 18 be d7 e1 b8 be bd d6 4c 3e
       0.2595889 -0.14892064 -0.36109802 0.20003791
0000a0 2f c1 a2 3c 85 4a 2d be 9f f3 df bd c4 ed 41 3d
       0.019867508 -0.16922958 -0.10935139 0.04734589
0000b0 35 01 c3 be f2 0c ee bc 79 e1 6d 3e 42 9c 8c be
       -0.38086858 -0.029058907 0.23230542 -0.27462965
0000c0 0d bd 95 3e ad 32 9e 3e dd e5 76 3e b5 92 a8 3d
       0.29245797 0.30898038 0.24111123 0.08231107
0000d0 2a 1c 43 3d 64 ba 95 3e 8c 86 0f 3e bd 3a 20 bd
       0.04763428 0.29243767 0.1401617 -0.039118517
0000e0 f4 22 00 3e ce 07 ed be 70 13 65 bd 56 49 c9 3e
       0.12513334 -0.46295017 -0.05592674 0.39313763
0000f0 08 29 21 be 2e 48 9a be dc 8e 52 3e 26 de 31 3e
       -0.15738308 -0.30133194 0.20562309 0.17369899

layers.4.weight f4 [1, 8]
000000 5c 93 67 3e 51 91 bf bd 27 bb 2d 3e e5 31 fa bd
       0.22614807 -0.09353889 0.16965924 -0.12216548
000010 a7 4a ad bd 91 7c 28 3e dd 33 3c 3e fe 40 62 3c
       -0.084615044 0.16453768 0.1837916 0.013809441
