platoon_gym/ctrl/models/vel_dyn_ctrl_pf_7_8_8_1_leaky_relu_guided_5_vehs.pt (torch, 6018 bytes, 5 tensors)

layers.0.weight f4 [8, 7]
000000 86 63 66 bf 4c 70 64 c0 cf e2 43 3c a3 ac 5b be
       -0.8999561 -3.569354 0.011955931 -0.21452574
000010 aa 27 79 3e 9e c6 db bd 33 48 86 3d 0c c0 11 bf
       0.24331537 -0.107312426 0.0655674 -0.56933665
000020 98 ab f9 be bb be b9 3e 3a aa 75 3e b2 36 7a 3e
       -0.48763728 0.36278328 0.23990718 0.24434927
000030 94 f3 2d 3c 71 ec 9f be c5 24 91 3f 29 a7 b5 bf
       0.010617156 -0.31235078 1.1339346 -1.4191638
000040 20 1d 4c 3e 38 d5 83 3e 71 08 8f 3e 75 2a e8 be
       0.19932985 0.2574861 0.27936128 -0.45344892
000050 d9 f9 3f bf e7 e0 2c 3f ce 7d b3 3d 66 4d c6 3e
       -0.7499061 0.67530674 0.0876423 0.38730925
000060 99 18 6a 3e 81 5b e1 3d b5 bf 1e 3d b3 c2 53 bb
       0.22860946 0.11003781 0.038757045 -0.0032312095
000070 3d 6b 3c 3f d1 92 af 3f 51 b2 0d bf 72 f7 94 3e
       0.7360113 1.371668 -0.55350214 0.29095036
000080 b4 e0 22 3e 52 b2 44 3e 90 89 61 3d ab 66 46 3e
       0.1590603 0.19208649 0.05506283 0.19375102
000090 a1 29 c7 3e 02 9a cb 3d 84 f1 aa 3e da 80 c3 3e
       0.38898948 0.09941484 0.33387387 0.38184243
0000a0 61 7c 20 3e dc fa 0e 3e a4 a4 d2 3e b3 79 40 3f
       0.15672447 0.13962883 0.41141236 0.751857
0000b0 9a cc 61 bf 54 8a 47 bf 8e b2 92 be 5d 24 c4 3e
       -0.8820282 -0.77945447 -0.2865185 0.38308993
0000c0 2d 4f 3d 3f a1 90 2a c0 23 08 8e c0 88 79 36 be
       0.7394894 -2.6650774 -4.4384933 -0.17819798
0000d0 92 4b 5e bd 53 24 c2 bd e5 4a 1e be 91 5a a8 3e
       -0.05427129 -0.094795845 -0.15458257 0.32881597

layers.0.bias f4 [8]
000000 33 17 13 3f 99 82 30 3e 01 9f 6b bb b2 91 eb 3d
       0.57457274 0.17237319 -0.0035952928 0.115023986
000010 cd d0 6f be ed 75 66 be 66 63 09 bf f1 a5 89 3e
       -0.23419495 -0.22505923 -0.53667295 0.26884416

layers.2.weight f4 [8, 8]
000000 2d ab 40 be f1 0b 86 3e 8f 08 16 be 49 14 8e 3c
       -0.18815298 0.26180986 -0.14651702 0.017343657
000010 97 7e 25 3d d9 f8 95 3e 73 1a 2b 3f 25 a3 78 3d
       0.04040393 0.29291418 0.66837233 0.06070246
000020 63 d0 a3 3e 7b 8c af 3e d6 c6 1e be ea de 2f 3e
       0.31994924 0.34286866 -0.15505537 0.17174879
000030 f7 53 cb 3e fa b4 cb 3e 97 a2 16 3f 21 3b 08 be
       0.39712498 0.39786512 0.5884184 -0.13303806
000040 53 61 db 3e f4 79 17 be 74 3f 99 be 38 14 ba bd
       0.4284769 -0.14792615 -0.29931223 -0.09085888
000050 32 f2 96 be 59 91 90 be 18 44 b1 bd 56 34 3b 3f
       -0.29481655 -0.2823589 -0.08655566 0.73126733
000060 25 2f 66 3d 47 62 dd bd 0c 3c b1 3d 9b 8d 24 be
       0.056197304 -0.108097605 0.08654031 -0.16069643
000070 2c 97 a5 bc 57 6a 51 3e 38 90 eb be 79 9e 0f 3f
       -0.020213686 0.20450722 -0.46008468 0.56101185
000080 be 83 e1 be bd 3f af be af 60 01 bf b2 3f f4 bd
       -0.44045824 -0.34228316 -0.5053815 -0.119262114
000090 36 7d 27 be 38 73 7c 3e 43 b7 9b be 95 14 7e be
       -0.16356358 0.24653327 -0.30413255 -0.24812539
0000a0 40 eb 0e 3f ed 3f 08 3e 2e 9b 59 be 19 f2 f9 be
       0.55827713 0.13305636 -0.21250603 -0.48817518
0000b0 0c 19 b1 3e d3 33 95 3e 3c 85 ee 3f 72 03 b8 be
       0.34589422 0.291411 1.863441 -0.3594013
0000c0 53 59 d5 3d b9 a9 06 3d 86 13 7d be 4e ee 48 3e
       0.10417428 0.032876704 -0.24714479 0.19622156
0000d0 03 1c 87 3e f0 7f c1 3e 4f 66 a0 3e 05 e9 21 be
       0.2638856 0.3779292 0.31328055 -0.15811546
0000e0 d2 5c df be 5d db 2d 3d be 75 5a be 63 76 fa bd
       -0.43625504 0.04244553 -0.21333978 -0.12229612
0000f0 30 ec ed 3e 02 f0 ce 3e 09 ec f7 3f e7 a2 fd be
       0.4646926 0.40417486 1.9368907 -0.49538347

layers.2.bias f4 [8]
000000 a6 b1 88 3e d4 62 32 be 10 11 d3 3e 30 3a 98 3d
       0.26698035 -0.17420512 0.41223955 0.074329734
000010 9d dd 06 3e ca 16 5d be a7 44 b4 3e 1b 84 9b bd
       0.13170476 -0.21590725 0.35208628 -0.075935565

layers.4.weight f4 [1, 8]
000000 0e b4 cd 3e 49 5d 0e 3f 7a d5 2a bf b9 9c be be
       0.40176433 0.5561109 -0.6673199 -0.37228945
000010 8c f6 c5 3d 81 f7 97 3f 7a 04 b1 3e cf 6c 5f 3f
       0.09666166 1.1872407 0.34573728 0.87275404
