platoon_gym/ctrl/models/vel_dyn_lyap_pf_6_8_8_1_leaky_relu_guided.pt (torch, 2882 bytes, 3 tensors)

layers.0.weight f4 [8, 6]
0	0xbf8e02e3	-1.1094631
1	0x3f30e81f	0.6910419
2	0x3efd8840	0.49518013
3	0x3dc8e20c	0.0980874
4	0x3dbc1757	0.09184139
5	0x3d13faf4	0.036128
6	0x3f4eb2cf	0.8074159
7	0x3e8c1ad6	0.27364224
8	0x3e6861d3	0.22693567
9	0xbf65dc98	-0.89789724
10	0xbf30c6fd	-0.6905363
11	0xbe80a341	-0.25124553
12	0x3ea07ff1	0.31347612
13	0xbec5148b	-0.38492236
14	0xbda55971	-0.080737
15	0x3eb50a86	0.3535959
16	0xbe8e3bd1	-0.2778001
17	0xbee4c786	-0.44683474
18	0x3ed6688f	0.41876647
19	0xbf12b2c2	-0.5730401
20	0xbfc3e146	-1.5303123
21	0x3ca77d3d	0.02044546
22	0x3e2e510d	0.17023106
23	0x3e55642d	0.20838995
24	0xbf0c3c2e	-0.54779327
25	0xbf5e19c4	-0.86758065
26	0xbe0e136a	-0.13874593
27	0xbe5cc511	-0.2155955
28	0x3d72f0f8	0.059311837
29	0x3d724b05	0.059153575
30	0x3f9a1df8	1.2040396
31	0x3fdb434f	1.7129916
32	0xbe2dd259	-0.16974773
33	0xbea1e41e	-0.31619352
34	0x3aeaa29c	0.0017901245
35	0x3d1ff431	0.03905124
36	0xbe74faa3	-0.23923735
37	0xbf0e970d	-0.55699235
38	0x3f60c7c4	0.8780482
39	0x3f884099	1.0644714
40	0xbd0a9db3	-0.0338418
41	0x3a91bdb4	0.0011119158
42	0x3e33a948	0.17545044
43	0xbea919fb	-0.33027634
44	0xbf02e2de	-0.5112742
45	0xbea1bd74	-0.31589854
46	0x3ee16e9d	0.44029704
47	0x3e35ce5a	0.17754498

layers.2.weight f4 [8, 8]
0	0xbe43b7f2	-0.19113138
1	0xbd99b567	-0.07505303
2	0x3d3920da	0.045197345
3	0xbe6584da	-0.2241396
4	0xbd9eb7b2	-0.07749881
5	0xbecdad92	-0.40171486
6	0xbe81ad29	-0.25327423
7	0xbec152b8	-0.37758422
8	0x3e552069	0.20813145
9	0x3e13a695	0.14419015
10	0xbe60fb0a	-0.21970764
11	0xbdaf6f5b	-0.08566161
12	0x3dc5ff14	0.09667793
13	0xbf3ed296	-0.7454008
14	0x3d86f18e	0.06589042
15	0x3f0be44d	0.54645234
16	0xbdffdae0	-0.12492919
17	0xbe81f8ce	-0.25385135
18	0xbde87bfd	-0.11351774
19	0xbe0cb147	-0.13739501
20	0x3ee00ffb	0.43762192
21	0xbe3cedf2	-0.18450144
22	0xbe82e344	-0.25564015
23	0x3e584ed9	0.21123828
24	0xbe2e7366	-0.17036209
25	0xbdc253bc	-0.09488627
26	0xbe215f0d	-0.15758915
27	0xbdb54212	-0.088504925
28	0xbdcd5925	-0.100267686
29	0x3d02b0d9	0.031906936
30	0x3d25f000	0.040512085
31	0x3dd63333	0.10458984
32	0xbee97ab3	-0.45601425
33	0xbe7e8e8f	-0.2485907
34	0xbea50927	-0.32233545
35	0xbead44fb	-0.3384169
36	0xbf16e741	-0.58946615
37	0xbf28ec82	-0.6598588
38	0xbf23a7c7	-0.6392788
39	0xbeaa56c2	-0.33269316
40	0xbe5edb1b	-0.2176327
41	0x3ebf9b8f	0.3742337
42	0xbea12d31	-0.3147979
43	0x3e07c3fc	0.13258356
44	0xbe8b9319	-0.27260664
45	0xbeaaa5a4	-0.333295
46	0x3cbe1fe9	0.023208575
47	0x3d34b509	0.04411796
48	0x3eccbd24	0.39988053
49	0x3e482da9	0.19548668
50	0x3e9185b7	0.2842233
51	0x3e4c0217	0.19922672
52	0x3f26caeb	0.6515338
53	0x3f0f5e4e	0.5600327
54	0x3f091899	0.5355316
55	0x3e991b37	0.29903576
56	0xbe6de326	-0.23231182
57	0xbe3a4388	-0.18189824
58	0xbdd310ae	-0.10305916
59	0x3d1b2640	0.037878275
60	0x39f4e296	0.00046708126
61	0xbe4f9c22	-0.20274404
62	0xbde1a446	-0.11017661
63	0x3ebd3010	0.3695073

layers.4.weight f4 [1, 8]
0	0xbb3b1c04	-0.0028550634
1	0x3d560a24	0.052255765
2	0x3d1c1c36	0.03811284
3	0x3ded5c89	0.11589915
4	0xbf861762	-1.0475886
5	0x3c83e400	0.01609993
6	0x3e9614c0	0.29312706
7	0xbce8bab1	-0.028409334
